<?xml version="1.0"?>
<net name="main_graph" version="11">
	<layers>
		<layer id="0" name="images" type="Parameter" version="opset1">
			<data shape="1,3,96,128" element_type="f32" />
			<output>
				<port id="0" precision="FP32" names="images">
					<dim>1</dim>
					<dim>3</dim>
					<dim>96</dim>
					<dim>128</dim>
				</port>
			</output>
		</layer>
		<layer id="1" name="/model.19/Constant_9" type="Const" version="opset1">
			<data element_type="f32" shape="1, 2, 252" offset="0" size="2016" />
			<output>
				<port id="0" precision="FP32" names="/model.19/Constant_9_output_0">
					<dim>1</dim>
					<dim>2</dim>
					<dim>252</dim>
				</port>
			</output>
		</layer>
		<layer id="2" name="onnx::Conv_692" type="Const" version="opset1">
			<data element_type="f32" shape="16, 3, 3, 3" offset="2016" size="1728" />
			<output>
				<port id="0" precision="FP32" names="onnx::Conv_692">
					<dim>16</dim>
					<dim>3</dim>
					<dim>3</dim>
					<dim>3</dim>
				</port>
			</output>
		</layer>
		<layer id="3" name="/model.0/model/conv_stem/Conv/WithoutBiases" type="Convolution" version="opset1">
			<data strides="2, 2" dilations="1, 1" pads_begin="1, 1" pads_end="1, 1" auto_pad="explicit" />
			<input>
				<port id="0" precision="FP32">
					<dim>1</dim>
					<dim>3</dim>
					<dim>96</dim>
					<dim>128</dim>
				</port>
				<port id="1" precision="FP32">
					<dim>16</dim>
					<dim>3</dim>
					<dim>3</dim>
					<dim>3</dim>
				</port>
			</input>
			<output>
				<port id="2" precision="FP32">
					<dim>1</dim>
					<dim>16</dim>
					<dim>48</dim>
					<dim>64</dim>
				</port>
			</output>
		</layer>
		<layer id="4" name="Reshape_193" type="Const" version="opset1">
			<data element_type="f32" shape="1, 16, 1, 1" offset="3744" size="64" />
			<output>
				<port id="0" precision="FP32">
					<dim>1</dim>
					<dim>16</dim>
					<dim>1</dim>
					<dim>1</dim>
				</port>
			</output>
		</layer>
		<layer id="5" name="/model.0/model/conv_stem/Conv" type="Add" version="opset1">
			<data auto_broadcast="numpy" />
			<input>
				<port id="0" precision="FP32">
					<dim>1</dim>
					<dim>16</dim>
					<dim>48</dim>
					<dim>64</dim>
				</port>
				<port id="1" precision="FP32">
					<dim>1</dim>
					<dim>16</dim>
					<dim>1</dim>
					<dim>1</dim>
				</port>
			</input>
			<output>
				<port id="2" precision="FP32" names="/model.0/model/conv_stem/Conv_output_0">
					<dim>1</dim>
					<dim>16</dim>
					<dim>48</dim>
					<dim>64</dim>
				</port>
			</output>
		</layer>
		<layer id="6" name="/model.0/model/act1/HardSwish" type="HSwish" version="opset4">
			<input>
				<port id="0" precision="FP32">
					<dim>1</dim>
					<dim>16</dim>
					<dim>48</dim>
					<dim>64</dim>
				</port>
			</input>
			<output>
				<port id="1" precision="FP32" names="/model.0/model/act1/HardSwish_output_0">
					<dim>1</dim>
					<dim>16</dim>
					<dim>48</dim>
					<dim>64</dim>
				</port>
			</output>
		</layer>
		<layer id="7" name="Reshape_203" type="Const" version="opset1">
			<data element_type="f32" shape="16, 1, 1, 3, 3" offset="3808" size="576" />
			<output>
				<port id="0" precision="FP32">
					<dim>16</dim>
					<dim>1</dim>
					<dim>1</dim>
					<dim>3</dim>
					<dim>3</dim>
				</port>
			</output>
		</layer>
		<layer id="8" name="/model.0/model/blocks.0/blocks.0.0/conv_dw/Conv/WithoutBiases" type="GroupConvolution" version="opset1">
			<data strides="2, 2" pads_begin="1, 1" pads_end="1, 1" dilations="1, 1" auto_pad="explicit" />
			<input>
				<port id="0" precision="FP32">
					<dim>1</dim>
					<dim>16</dim>
					<dim>48</dim>
					<dim>64</dim>
				</port>
				<port id="1" precision="FP32">
					<dim>16</dim>
					<dim>1</dim>
					<dim>1</dim>
					<dim>3</dim>
					<dim>3</dim>
				</port>
			</input>
			<output>
				<port id="2" precision="FP32">
					<dim>1</dim>
					<dim>16</dim>
					<dim>24</dim>
					<dim>32</dim>
				</port>
			</output>
		</layer>
		<layer id="9" name="Reshape_253" type="Const" version="opset1">
			<data element_type="f32" shape="1, 16, 1, 1" offset="4384" size="64" />
			<output>
				<port id="0" precision="FP32">
					<dim>1</dim>
					<dim>16</dim>
					<dim>1</dim>
					<dim>1</dim>
				</port>
			</output>
		</layer>
		<layer id="10" name="/model.0/model/blocks.0/blocks.0.0/conv_dw/Conv" type="Add" version="opset1">
			<data auto_broadcast="numpy" />
			<input>
				<port id="0" precision="FP32">
					<dim>1</dim>
					<dim>16</dim>
					<dim>24</dim>
					<dim>32</dim>
				</port>
				<port id="1" precision="FP32">
					<dim>1</dim>
					<dim>16</dim>
					<dim>1</dim>
					<dim>1</dim>
				</port>
			</input>
			<output>
				<port id="2" precision="FP32" names="/model.0/model/blocks.0/blocks.0.0/conv_dw/Conv_output_0">
					<dim>1</dim>
					<dim>16</dim>
					<dim>24</dim>
					<dim>32</dim>
				</port>
			</output>
		</layer>
		<layer id="11" name="/model.0/model/blocks.0/blocks.0.0/bn1/act/Relu" type="ReLU" version="opset1">
			<input>
				<port id="0" precision="FP32">
					<dim>1</dim>
					<dim>16</dim>
					<dim>24</dim>
					<dim>32</dim>
				</port>
			</input>
			<output>
				<port id="1" precision="FP32" names="/model.0/model/blocks.0/blocks.0.0/bn1/act/Relu_output_0">
					<dim>1</dim>
					<dim>16</dim>
					<dim>24</dim>
					<dim>32</dim>
				</port>
			</output>
		</layer>
		<layer id="12" name="Constant_256" type="Const" version="opset1">
			<data element_type="i64" shape="2" offset="4448" size="16" />
			<output>
				<port id="0" precision="I64">
					<dim>2</dim>
				</port>
			</output>
		</layer>
		<layer id="13" name="/model.0/model/blocks.0/blocks.0.0/se/ReduceMean" type="ReduceMean" version="opset1">
			<data keep_dims="true" />
			<input>
				<port id="0" precision="FP32">
					<dim>1</dim>
					<dim>16</dim>
					<dim>24</dim>
					<dim>32</dim>
				</port>
				<port id="1" precision="I64">
					<dim>2</dim>
				</port>
			</input>
			<output>
				<port id="2" precision="FP32" names="/model.0/model/blocks.0/blocks.0.0/se/ReduceMean_output_0">
					<dim>1</dim>
					<dim>16</dim>
					<dim>1</dim>
					<dim>1</dim>
				</port>
			</output>
		</layer>
		<layer id="14" name="model.0.model.blocks.0.0.se.conv_reduce.weight" type="Const" version="opset1">
			<data element_type="f32" shape="8, 16, 1, 1" offset="4464" size="512" />
			<output>
				<port id="0" precision="FP32" names="model.0.model.blocks.0.0.se.conv_reduce.weight">
					<dim>8</dim>
					<dim>16</dim>
					<dim>1</dim>
					<dim>1</dim>
				</port>
			</output>
		</layer>
		<layer id="15" name="/model.0/model/blocks.0/blocks.0.0/se/conv_reduce/Conv/WithoutBiases" type="Convolution" version="opset1">
			<data strides="1, 1" dilations="1, 1" pads_begin="0, 0" pads_end="0, 0" auto_pad="explicit" />
			<input>
				<port id="0" precision="FP32">
					<dim>1</dim>
					<dim>16</dim>
					<dim>1</dim>
					<dim>1</dim>
				</port>
				<port id="1" precision="FP32">
					<dim>8</dim>
					<dim>16</dim>
					<dim>1</dim>
					<dim>1</dim>
				</port>
			</input>
			<output>
				<port id="2" precision="FP32">
					<dim>1</dim>
					<dim>8</dim>
					<dim>1</dim>
					<dim>1</dim>
				</port>
			</output>
		</layer>
		<layer id="16" name="Reshape_269" type="Const" version="opset1">
			<data element_type="f32" shape="1, 8, 1, 1" offset="4976" size="32" />
			<output>
				<port id="0" precision="FP32">
					<dim>1</dim>
					<dim>8</dim>
					<dim>1</dim>
					<dim>1</dim>
				</port>
			</output>
		</layer>
		<layer id="17" name="/model.0/model/blocks.0/blocks.0.0/se/conv_reduce/Conv" type="Add" version="opset1">
			<data auto_broadcast="numpy" />
			<input>
				<port id="0" precision="FP32">
					<dim>1</dim>
					<dim>8</dim>
					<dim>1</dim>
					<dim>1</dim>
				</port>
				<port id="1" precision="FP32">
					<dim>1</dim>
					<dim>8</dim>
					<dim>1</dim>
					<dim>1</dim>
				</port>
			</input>
			<output>
				<port id="2" precision="FP32" names="/model.0/model/blocks.0/blocks.0.0/se/conv_reduce/Conv_output_0">
					<dim>1</dim>
					<dim>8</dim>
					<dim>1</dim>
					<dim>1</dim>
				</port>
			</output>
		</layer>
		<layer id="18" name="/model.0/model/blocks.0/blocks.0.0/se/act1/Relu" type="ReLU" version="opset1">
			<input>
				<port id="0" precision="FP32">
					<dim>1</dim>
					<dim>8</dim>
					<dim>1</dim>
					<dim>1</dim>
				</port>
			</input>
			<output>
				<port id="1" precision="FP32" names="/model.0/model/blocks.0/blocks.0.0/se/act1/Relu_output_0">
					<dim>1</dim>
					<dim>8</dim>
					<dim>1</dim>
					<dim>1</dim>
				</port>
			</output>
		</layer>
		<layer id="19" name="model.0.model.blocks.0.0.se.conv_expand.weight" type="Const" version="opset1">
			<data element_type="f32" shape="16, 8, 1, 1" offset="5008" size="512" />
			<output>
				<port id="0" precision="FP32" names="model.0.model.blocks.0.0.se.conv_expand.weight">
					<dim>16</dim>
					<dim>8</dim>
					<dim>1</dim>
					<dim>1</dim>
				</port>
			</output>
		</layer>
		<layer id="20" name="/model.0/model/blocks.0/blocks.0.0/se/conv_expand/Conv/WithoutBiases" type="Convolution" version="opset1">
			<data strides="1, 1" dilations="1, 1" pads_begin="0, 0" pads_end="0, 0" auto_pad="explicit" />
			<input>
				<port id="0" precision="FP32">
					<dim>1</dim>
					<dim>8</dim>
					<dim>1</dim>
					<dim>1</dim>
				</port>
				<port id="1" precision="FP32">
					<dim>16</dim>
					<dim>8</dim>
					<dim>1</dim>
					<dim>1</dim>
				</port>
			</input>
			<output>
				<port id="2" precision="FP32">
					<dim>1</dim>
					<dim>16</dim>
					<dim>1</dim>
					<dim>1</dim>
				</port>
			</output>
		</layer>
		<layer id="21" name="Reshape_283" type="Const" version="opset1">
			<data element_type="f32" shape="1, 16, 1, 1" offset="5520" size="64" />
			<output>
				<port id="0" precision="FP32">
					<dim>1</dim>
					<dim>16</dim>
					<dim>1</dim>
					<dim>1</dim>
				</port>
			</output>
		</layer>
		<layer id="22" name="/model.0/model/blocks.0/blocks.0.0/se/conv_expand/Conv" type="Add" version="opset1">
			<data auto_broadcast="numpy" />
			<input>
				<port id="0" precision="FP32">
					<dim>1</dim>
					<dim>16</dim>
					<dim>1</dim>
					<dim>1</dim>
				</port>
				<port id="1" precision="FP32">
					<dim>1</dim>
					<dim>16</dim>
					<dim>1</dim>
					<dim>1</dim>
				</port>
			</input>
			<output>
				<port id="2" precision="FP32" names="/model.0/model/blocks.0/blocks.0.0/se/conv_expand/Conv_output_0">
					<dim>1</dim>
					<dim>16</dim>
					<dim>1</dim>
					<dim>1</dim>
				</port>
			</output>
		</layer>
		<layer id="23" name="Constant_285" type="Const" version="opset1">
			<data element_type="f32" shape="" offset="5584" size="4" />
			<output>
				<port id="0" precision="FP32" />
			</output>
		</layer>
		<layer id="24" name="Constant_286" type="Const" version="opset1">
			<data element_type="f32" shape="" offset="5588" size="4" />
			<output>
				<port id="0" precision="FP32" />
			</output>
		</layer>
		<layer id="25" name="/model.0/model/blocks.0/blocks.0.0/se/gate/HardSigmoid" type="HardSigmoid" version="opset1">
			<input>
				<port id="0" precision="FP32">
					<dim>1</dim>
					<dim>16</dim>
					<dim>1</dim>
					<dim>1</dim>
				</port>
				<port id="1" precision="FP32" />
				<port id="2" precision="FP32" />
			</input>
			<output>
				<port id="3" precision="FP32" names="/model.0/model/blocks.0/blocks.0.0/se/gate/HardSigmoid_output_0">
					<dim>1</dim>
					<dim>16</dim>
					<dim>1</dim>
					<dim>1</dim>
				</port>
			</output>
		</layer>
		<layer id="26" name="/model.0/model/blocks.0/blocks.0.0/se/Mul" type="Multiply" version="opset1">
			<data auto_broadcast="numpy" />
			<input>
				<port id="0" precision="FP32">
					<dim>1</dim>
					<dim>16</dim>
					<dim>24</dim>
					<dim>32</dim>
				</port>
				<port id="1" precision="FP32">
					<dim>1</dim>
					<dim>16</dim>
					<dim>1</dim>
					<dim>1</dim>
				</port>
			</input>
			<output>
				<port id="2" precision="FP32" names="/model.0/model/blocks.0/blocks.0.0/se/Mul_output_0">
					<dim>1</dim>
					<dim>16</dim>
					<dim>24</dim>
					<dim>32</dim>
				</port>
			</output>
		</layer>
		<layer id="27" name="onnx::Conv_698" type="Const" version="opset1">
			<data element_type="f32" shape="8, 16, 1, 1" offset="5592" size="512" />
			<output>
				<port id="0" precision="FP32" names="onnx::Conv_698">
					<dim>8</dim>
					<dim>16</dim>
					<dim>1</dim>
					<dim>1</dim>
				</port>
			</output>
		</layer>
		<layer id="28" name="/model.0/model/blocks.0/blocks.0.0/conv_pw/Conv/WithoutBiases" type="Convolution" version="opset1">
			<data strides="1, 1" dilations="1, 1" pads_begin="0, 0" pads_end="0, 0" auto_pad="explicit" />
			<input>
				<port id="0" precision="FP32">
					<dim>1</dim>
					<dim>16</dim>
					<dim>24</dim>
					<dim>32</dim>
				</port>
				<port id="1" precision="FP32">
					<dim>8</dim>
					<dim>16</dim>
					<dim>1</dim>
					<dim>1</dim>
				</port>
			</input>
			<output>
				<port id="2" precision="FP32">
					<dim>1</dim>
					<dim>8</dim>
					<dim>24</dim>
					<dim>32</dim>
				</port>
			</output>
		</layer>
		<layer id="29" name="Reshape_300" type="Const" version="opset1">
			<data element_type="f32" shape="1, 8, 1, 1" offset="6104" size="32" />
			<output>
				<port id="0" precision="FP32">
					<dim>1</dim>
					<dim>8</dim>
					<dim>1</dim>
					<dim>1</dim>
				</port>
			</output>
		</layer>
		<layer id="30" name="/model.0/model/blocks.0/blocks.0.0/conv_pw/Conv" type="Add" version="opset1">
			<data auto_broadcast="numpy" />
			<input>
				<port id="0" precision="FP32">
					<dim>1</dim>
					<dim>8</dim>
					<dim>24</dim>
					<dim>32</dim>
				</port>
				<port id="1" precision="FP32">
					<dim>1</dim>
					<dim>8</dim>
					<dim>1</dim>
					<dim>1</dim>
				</port>
			</input>
			<output>
				<port id="2" precision="FP32" names="/model.0/model/blocks.0/blocks.0.0/conv_pw/Conv_output_0">
					<dim>1</dim>
					<dim>8</dim>
					<dim>24</dim>
					<dim>32</dim>
				</port>
			</output>
		</layer>
		<layer id="31" name="onnx::Conv_701" type="Const" version="opset1">
			<data element_type="f32" shape="40, 8, 1, 1" offset="6136" size="1280" />
			<output>
				<port id="0" precision="FP32" names="onnx::Conv_701">
					<dim>40</dim>
					<dim>8</dim>
					<dim>1</dim>
					<dim>1</dim>
				</port>
			</output>
		</layer>
		<layer id="32" name="/model.0/model/blocks.1/blocks.1.0/conv_pw/Conv/WithoutBiases" type="Convolution" version="opset1">
			<data strides="1, 1" dilations="1, 1" pads_begin="0, 0" pads_end="0, 0" auto_pad="explicit" />
			<input>
				<port id="0" precision="FP32">
					<dim>1</dim>
					<dim>8</dim>
					<dim>24</dim>
					<dim>32</dim>
				</port>
				<port id="1" precision="FP32">
					<dim>40</dim>
					<dim>8</dim>
					<dim>1</dim>
					<dim>1</dim>
				</port>
			</input>
			<output>
				<port id="2" precision="FP32">
					<dim>1</dim>
					<dim>40</dim>
					<dim>24</dim>
					<dim>32</dim>
				</port>
			</output>
		</layer>
		<layer id="33" name="Reshape_313" type="Const" version="opset1">
			<data element_type="f32" shape="1, 40, 1, 1" offset="7416" size="160" />
			<output>
				<port id="0" precision="FP32">
					<dim>1</dim>
					<dim>40</dim>
					<dim>1</dim>
					<dim>1</dim>
				</port>
			</output>
		</layer>
		<layer id="34" name="/model.0/model/blocks.1/blocks.1.0/conv_pw/Conv" type="Add" version="opset1">
			<data auto_broadcast="numpy" />
			<input>
				<port id="0" precision="FP32">
					<dim>1</dim>
					<dim>40</dim>
					<dim>24</dim>
					<dim>32</dim>
				</port>
				<port id="1" precision="FP32">
					<dim>1</dim>
					<dim>40</dim>
					<dim>1</dim>
					<dim>1</dim>
				</port>
			</input>
			<output>
				<port id="2" precision="FP32" names="/model.0/model/blocks.1/blocks.1.0/conv_pw/Conv_output_0">
					<dim>1</dim>
					<dim>40</dim>
					<dim>24</dim>
					<dim>32</dim>
				</port>
			</output>
		</layer>
		<layer id="35" name="/model.0/model/blocks.1/blocks.1.0/bn1/act/Relu" type="ReLU" version="opset1">
			<input>
				<port id="0" precision="FP32">
					<dim>1</dim>
					<dim>40</dim>
					<dim>24</dim>
					<dim>32</dim>
				</port>
			</input>
			<output>
				<port id="1" precision="FP32" names="/model.0/model/blocks.1/blocks.1.0/bn1/act/Relu_output_0">
					<dim>1</dim>
					<dim>40</dim>
					<dim>24</dim>
					<dim>32</dim>
				</port>
			</output>
		</layer>
		<layer id="36" name="Reshape_323" type="Const" version="opset1">
			<data element_type="f32" shape="40, 1, 1, 3, 3" offset="7576" size="1440" />
			<output>
				<port id="0" precision="FP32">
					<dim>40</dim>
					<dim>1</dim>
					<dim>1</dim>
					<dim>3</dim>
					<dim>3</dim>
				</port>
			</output>
		</layer>
		<layer id="37" name="/model.0/model/blocks.1/blocks.1.0/conv_dw/Conv/WithoutBiases" type="GroupConvolution" version="opset1">
			<data strides="2, 2" pads_begin="1, 1" pads_end="1, 1" dilations="1, 1" auto_pad="explicit" />
			<input>
				<port id="0" precision="FP32">
					<dim>1</dim>
					<dim>40</dim>
					<dim>24</dim>
					<dim>32</dim>
				</port>
				<port id="1" precision="FP32">
					<dim>40</dim>
					<dim>1</dim>
					<dim>1</dim>
					<dim>3</dim>
					<dim>3</dim>
				</port>
			</input>
			<output>
				<port id="2" precision="FP32">
					<dim>1</dim>
					<dim>40</dim>
					<dim>12</dim>
					<dim>16</dim>
				</port>
			</output>
		</layer>
		<layer id="38" name="Reshape_373" type="Const" version="opset1">
			<data element_type="f32" shape="1, 40, 1, 1" offset="9016" size="160" />
			<output>
				<port id="0" precision="FP32">
					<dim>1</dim>
					<dim>40</dim>
					<dim>1</dim>
					<dim>1</dim>
				</port>
			</output>
		</layer>
		<layer id="39" name="/model.0/model/blocks.1/blocks.1.0/conv_dw/Conv" type="Add" version="opset1">
			<data auto_broadcast="numpy" />
			<input>
				<port id="0" precision="FP32">
					<dim>1</dim>
					<dim>40</dim>
					<dim>12</dim>
					<dim>16</dim>
				</port>
				<port id="1" precision="FP32">
					<dim>1</dim>
					<dim>40</dim>
					<dim>1</dim>
					<dim>1</dim>
				</port>
			</input>
			<output>
				<port id="2" precision="FP32" names="/model.0/model/blocks.1/blocks.1.0/conv_dw/Conv_output_0">
					<dim>1</dim>
					<dim>40</dim>
					<dim>12</dim>
					<dim>16</dim>
				</port>
			</output>
		</layer>
		<layer id="40" name="/model.0/model/blocks.1/blocks.1.0/bn2/act/Relu" type="ReLU" version="opset1">
			<input>
				<port id="0" precision="FP32">
					<dim>1</dim>
					<dim>40</dim>
					<dim>12</dim>
					<dim>16</dim>
				</port>
			</input>
			<output>
				<port id="1" precision="FP32" names="/model.0/model/blocks.1/blocks.1.0/bn2/act/Relu_output_0">
					<dim>1</dim>
					<dim>40</dim>
					<dim>12</dim>
					<dim>16</dim>
				</port>
			</output>
		</layer>
		<layer id="41" name="onnx::Conv_707" type="Const" version="opset1">
			<data element_type="f32" shape="16, 40, 1, 1" offset="9176" size="2560" />
			<output>
				<port id="0" precision="FP32" names="onnx::Conv_707">
					<dim>16</dim>
					<dim>40</dim>
					<dim>1</dim>
					<dim>1</dim>
				</port>
			</output>
		</layer>
		<layer id="42" name="/model.0/model/blocks.1/blocks.1.0/conv_pwl/Conv/WithoutBiases" type="Convolution" version="opset1">
			<data strides="1, 1" dilations="1, 1" pads_begin="0, 0" pads_end="0, 0" auto_pad="explicit" />
			<input>
				<port id="0" precision="FP32">
					<dim>1</dim>
					<dim>40</dim>
					<dim>12</dim>
					<dim>16</dim>
				</port>
				<port id="1" precision="FP32">
					<dim>16</dim>
					<dim>40</dim>
					<dim>1</dim>
					<dim>1</dim>
				</port>
			</input>
			<output>
				<port id="2" precision="FP32">
					<dim>1</dim>
					<dim>16</dim>
					<dim>12</dim>
					<dim>16</dim>
				</port>
			</output>
		</layer>
		<layer id="43" name="Reshape_387" type="Const" version="opset1">
			<data element_type="f32" shape="1, 16, 1, 1" offset="11736" size="64" />
			<output>
				<port id="0" precision="FP32">
					<dim>1</dim>
					<dim>16</dim>
					<dim>1</dim>
					<dim>1</dim>
				</port>
			</output>
		</layer>
		<layer id="44" name="/model.0/model/blocks.1/blocks.1.0/conv_pwl/Conv" type="Add" version="opset1">
			<data auto_broadcast="numpy" />
			<input>
				<port id="0" precision="FP32">
					<dim>1</dim>
					<dim>16</dim>
					<dim>12</dim>
					<dim>16</dim>
				</port>
				<port id="1" precision="FP32">
					<dim>1</dim>
					<dim>16</dim>
					<dim>1</dim>
					<dim>1</dim>
				</port>
			</input>
			<output>
				<port id="2" precision="FP32" names="/model.0/model/blocks.1/blocks.1.0/conv_pwl/Conv_output_0">
					<dim>1</dim>
					<dim>16</dim>
					<dim>12</dim>
					<dim>16</dim>
				</port>
			</output>
		</layer>
		<layer id="45" name="onnx::Conv_710" type="Const" version="opset1">
			<data element_type="f32" shape="56, 16, 1, 1" offset="11800" size="3584" />
			<output>
				<port id="0" precision="FP32" names="onnx::Conv_710">
					<dim>56</dim>
					<dim>16</dim>
					<dim>1</dim>
					<dim>1</dim>
				</port>
			</output>
		</layer>
		<layer id="46" name="/model.0/model/blocks.1/blocks.1.1/conv_pw/Conv/WithoutBiases" type="Convolution" version="opset1">
			<data strides="1, 1" dilations="1, 1" pads_begin="0, 0" pads_end="0, 0" auto_pad="explicit" />
			<input>
				<port id="0" precision="FP32">
					<dim>1</dim>
					<dim>16</dim>
					<dim>12</dim>
					<dim>16</dim>
				</port>
				<port id="1" precision="FP32">
					<dim>56</dim>
					<dim>16</dim>
					<dim>1</dim>
					<dim>1</dim>
				</port>
			</input>
			<output>
				<port id="2" precision="FP32">
					<dim>1</dim>
					<dim>56</dim>
					<dim>12</dim>
					<dim>16</dim>
				</port>
			</output>
		</layer>
		<layer id="47" name="Reshape_400" type="Const" version="opset1">
			<data element_type="f32" shape="1, 56, 1, 1" offset="15384" size="224" />
			<output>
				<port id="0" precision="FP32">
					<dim>1</dim>
					<dim>56</dim>
					<dim>1</dim>
					<dim>1</dim>
				</port>
			</output>
		</layer>
		<layer id="48" name="/model.0/model/blocks.1/blocks.1.1/conv_pw/Conv" type="Add" version="opset1">
			<data auto_broadcast="numpy" />
			<input>
				<port id="0" precision="FP32">
					<dim>1</dim>
					<dim>56</dim>
					<dim>12</dim>
					<dim>16</dim>
				</port>
				<port id="1" precision="FP32">
					<dim>1</dim>
					<dim>56</dim>
					<dim>1</dim>
					<dim>1</dim>
				</port>
			</input>
			<output>
				<port id="2" precision="FP32" names="/model.0/model/blocks.1/blocks.1.1/conv_pw/Conv_output_0">
					<dim>1</dim>
					<dim>56</dim>
					<dim>12</dim>
					<dim>16</dim>
				</port>
			</output>
		</layer>
		<layer id="49" name="/model.0/model/blocks.1/blocks.1.1/bn1/act/Relu" type="ReLU" version="opset1">
			<input>
				<port id="0" precision="FP32">
					<dim>1</dim>
					<dim>56</dim>
					<dim>12</dim>
					<dim>16</dim>
				</port>
			</input>
			<output>
				<port id="1" precision="FP32" names="/model.0/model/blocks.1/blocks.1.1/bn1/act/Relu_output_0">
					<dim>1</dim>
					<dim>56</dim>
					<dim>12</dim>
					<dim>16</dim>
				</port>
			</output>
		</layer>
		<layer id="50" name="Reshape_410" type="Const" version="opset1">
			<data element_type="f32" shape="56, 1, 1, 3, 3" offset="15608" size="2016" />
			<output>
				<port id="0" precision="FP32">
					<dim>56</dim>
					<dim>1</dim>
					<dim>1</dim>
					<dim>3</dim>
					<dim>3</dim>
				</port>
			</output>
		</layer>
		<layer id="51" name="/model.0/model/blocks.1/blocks.1.1/conv_dw/Conv/WithoutBiases" type="GroupConvolution" version="opset1">
			<data strides="1, 1" pads_begin="1, 1" pads_end="1, 1" dilations="1, 1" auto_pad="explicit" />
			<input>
				<port id="0" precision="FP32">
					<dim>1</dim>
					<dim>56</dim>
					<dim>12</dim>
					<dim>16</dim>
				</port>
				<port id="1" precision="FP32">
					<dim>56</dim>
					<dim>1</dim>
					<dim>1</dim>
					<dim>3</dim>
					<dim>3</dim>
				</port>
			</input>
			<output>
				<port id="2" precision="FP32">
					<dim>1</dim>
					<dim>56</dim>
					<dim>12</dim>
					<dim>16</dim>
				</port>
			</output>
		</layer>
		<layer id="52" name="Reshape_460" type="Const" version="opset1">
			<data element_type="f32" shape="1, 56, 1, 1" offset="17624" size="224" />
			<output>
				<port id="0" precision="FP32">
					<dim>1</dim>
					<dim>56</dim>
					<dim>1</dim>
					<dim>1</dim>
				</port>
			</output>
		</layer>
		<layer id="53" name="/model.0/model/blocks.1/blocks.1.1/conv_dw/Conv" type="Add" version="opset1">
			<data auto_broadcast="numpy" />
			<input>
				<port id="0" precision="FP32">
					<dim>1</dim>
					<dim>56</dim>
					<dim>12</dim>
					<dim>16</dim>
				</port>
				<port id="1" precision="FP32">
					<dim>1</dim>
					<dim>56</dim>
					<dim>1</dim>
					<dim>1</dim>
				</port>
			</input>
			<output>
				<port id="2" precision="FP32" names="/model.0/model/blocks.1/blocks.1.1/conv_dw/Conv_output_0">
					<dim>1</dim>
					<dim>56</dim>
					<dim>12</dim>
					<dim>16</dim>
				</port>
			</output>
		</layer>
		<layer id="54" name="/model.0/model/blocks.1/blocks.1.1/bn2/act/Relu" type="ReLU" version="opset1">
			<input>
				<port id="0" precision="FP32">
					<dim>1</dim>
					<dim>56</dim>
					<dim>12</dim>
					<dim>16</dim>
				</port>
			</input>
			<output>
				<port id="1" precision="FP32" names="/model.0/model/blocks.1/blocks.1.1/bn2/act/Relu_output_0">
					<dim>1</dim>
					<dim>56</dim>
					<dim>12</dim>
					<dim>16</dim>
				</port>
			</output>
		</layer>
		<layer id="55" name="onnx::Conv_716" type="Const" version="opset1">
			<data element_type="f32" shape="16, 56, 1, 1" offset="17848" size="3584" />
			<output>
				<port id="0" precision="FP32" names="onnx::Conv_716">
					<dim>16</dim>
					<dim>56</dim>
					<dim>1</dim>
					<dim>1</dim>
				</port>
			</output>
		</layer>
		<layer id="56" name="/model.0/model/blocks.1/blocks.1.1/conv_pwl/Conv/WithoutBiases" type="Convolution" version="opset1">
			<data strides="1, 1" dilations="1, 1" pads_begin="0, 0" pads_end="0, 0" auto_pad="explicit" />
			<input>
				<port id="0" precision="FP32">
					<dim>1</dim>
					<dim>56</dim>
					<dim>12</dim>
					<dim>16</dim>
				</port>
				<port id="1" precision="FP32">
					<dim>16</dim>
					<dim>56</dim>
					<dim>1</dim>
					<dim>1</dim>
				</port>
			</input>
			<output>
				<port id="2" precision="FP32">
					<dim>1</dim>
					<dim>16</dim>
					<dim>12</dim>
					<dim>16</dim>
				</port>
			</output>
		</layer>
		<layer id="57" name="Reshape_474" type="Const" version="opset1">
			<data element_type="f32" shape="1, 16, 1, 1" offset="21432" size="64" />
			<output>
				<port id="0" precision="FP32">
					<dim>1</dim>
					<dim>16</dim>
					<dim>1</dim>
					<dim>1</dim>
				</port>
			</output>
		</layer>
		<layer id="58" name="/model.0/model/blocks.1/blocks.1.1/conv_pwl/Conv" type="Add" version="opset1">
			<data auto_broadcast="numpy" />
			<input>
				<port id="0" precision="FP32">
					<dim>1</dim>
					<dim>16</dim>
					<dim>12</dim>
					<dim>16</dim>
				</port>
				<port id="1" precision="FP32">
					<dim>1</dim>
					<dim>16</dim>
					<dim>1</dim>
					<dim>1</dim>
				</port>
			</input>
			<output>
				<port id="2" precision="FP32" names="/model.0/model/blocks.1/blocks.1.1/conv_pwl/Conv_output_0">
					<dim>1</dim>
					<dim>16</dim>
					<dim>12</dim>
					<dim>16</dim>
				</port>
			</output>
		</layer>
		<layer id="59" name="/model.0/model/blocks.1/blocks.1.1/Add" type="Add" version="opset1">
			<data auto_broadcast="numpy" />
			<input>
				<port id="0" precision="FP32">
					<dim>1</dim>
					<dim>16</dim>
					<dim>12</dim>
					<dim>16</dim>
				</port>
				<port id="1" precision="FP32">
					<dim>1</dim>
					<dim>16</dim>
					<dim>12</dim>
					<dim>16</dim>
				</port>
			</input>
			<output>
				<port id="2" precision="FP32" names="/model.0/model/blocks.1/blocks.1.1/Add_output_0">
					<dim>1</dim>
					<dim>16</dim>
					<dim>12</dim>
					<dim>16</dim>
				</port>
			</output>
		</layer>
		<layer id="60" name="onnx::Conv_719" type="Const" version="opset1">
			<data element_type="f32" shape="64, 16, 1, 1" offset="21496" size="4096" />
			<output>
				<port id="0" precision="FP32" names="onnx::Conv_719">
					<dim>64</dim>
					<dim>16</dim>
					<dim>1</dim>
					<dim>1</dim>
				</port>
			</output>
		</layer>
		<layer id="61" name="/model.0/model/blocks.2/blocks.2.0/conv_pw/Conv/WithoutBiases" type="Convolution" version="opset1">
			<data strides="1, 1" dilations="1, 1" pads_begin="0, 0" pads_end="0, 0" auto_pad="explicit" />
			<input>
				<port id="0" precision="FP32">
					<dim>1</dim>
					<dim>16</dim>
					<dim>12</dim>
					<dim>16</dim>
				</port>
				<port id="1" precision="FP32">
					<dim>64</dim>
					<dim>16</dim>
					<dim>1</dim>
					<dim>1</dim>
				</port>
			</input>
			<output>
				<port id="2" precision="FP32">
					<dim>1</dim>
					<dim>64</dim>
					<dim>12</dim>
					<dim>16</dim>
				</port>
			</output>
		</layer>
		<layer id="62" name="Reshape_488" type="Const" version="opset1">
			<data element_type="f32" shape="1, 64, 1, 1" offset="25592" size="256" />
			<output>
				<port id="0" precision="FP32">
					<dim>1</dim>
					<dim>64</dim>
					<dim>1</dim>
					<dim>1</dim>
				</port>
			</output>
		</layer>
		<layer id="63" name="/model.0/model/blocks.2/blocks.2.0/conv_pw/Conv" type="Add" version="opset1">
			<data auto_broadcast="numpy" />
			<input>
				<port id="0" precision="FP32">
					<dim>1</dim>
					<dim>64</dim>
					<dim>12</dim>
					<dim>16</dim>
				</port>
				<port id="1" precision="FP32">
					<dim>1</dim>
					<dim>64</dim>
					<dim>1</dim>
					<dim>1</dim>
				</port>
			</input>
			<output>
				<port id="2" precision="FP32" names="/model.0/model/blocks.2/blocks.2.0/conv_pw/Conv_output_0">
					<dim>1</dim>
					<dim>64</dim>
					<dim>12</dim>
					<dim>16</dim>
				</port>
			</output>
		</layer>
		<layer id="64" name="/model.0/model/blocks.2/blocks.2.0/bn1/act/HardSwish" type="HSwish" version="opset4">
			<input>
				<port id="0" precision="FP32">
					<dim>1</dim>
					<dim>64</dim>
					<dim>12</dim>
					<dim>16</dim>
				</port>
			</input>
			<output>
				<port id="1" precision="FP32" names="/model.0/model/blocks.2/blocks.2.0/bn1/act/HardSwish_output_0">
					<dim>1</dim>
					<dim>64</dim>
					<dim>12</dim>
					<dim>16</dim>
				</port>
			</output>
		</layer>
		<layer id="65" name="Reshape_498" type="Const" version="opset1">
			<data element_type="f32" shape="64, 1, 1, 5, 5" offset="25848" size="6400" />
			<output>
				<port id="0" precision="FP32">
					<dim>64</dim>
					<dim>1</dim>
					<dim>1</dim>
					<dim>5</dim>
					<dim>5</dim>
				</port>
			</output>
		</layer>
		<layer id="66" name="/model.0/model/blocks.2/blocks.2.0/conv_dw/Conv/WithoutBiases" type="GroupConvolution" version="opset1">
			<data strides="2, 2" pads_begin="2, 2" pads_end="2, 2" dilations="1, 1" auto_pad="explicit" />
			<input>
				<port id="0" precision="FP32">
					<dim>1</dim>
					<dim>64</dim>
					<dim>12</dim>
					<dim>16</dim>
				</port>
				<port id="1" precision="FP32">
					<dim>64</dim>
					<dim>1</dim>
					<dim>1</dim>
					<dim>5</dim>
					<dim>5</dim>
				</port>
			</input>
			<output>
				<port id="2" precision="FP32">
					<dim>1</dim>
					<dim>64</dim>
					<dim>6</dim>
					<dim>8</dim>
				</port>
			</output>
		</layer>
		<layer id="67" name="Reshape_548" type="Const" version="opset1">
			<data element_type="f32" shape="1, 64, 1, 1" offset="32248" size="256" />
			<output>
				<port id="0" precision="FP32">
					<dim>1</dim>
					<dim>64</dim>
					<dim>1</dim>
					<dim>1</dim>
				</port>
			</output>
		</layer>
		<layer id="68" name="/model.0/model/blocks.2/blocks.2.0/conv_dw/Conv" type="Add" version="opset1">
			<data auto_broadcast="numpy" />
			<input>
				<port id="0" precision="FP32">
					<dim>1</dim>
					<dim>64</dim>
					<dim>6</dim>
					<dim>8</dim>
				</port>
				<port id="1" precision="FP32">
					<dim>1</dim>
					<dim>64</dim>
					<dim>1</dim>
					<dim>1</dim>
				</port>
			</input>
			<output>
				<port id="2" precision="FP32" names="/model.0/model/blocks.2/blocks.2.0/conv_dw/Conv_output_0">
					<dim>1</dim>
					<dim>64</dim>
					<dim>6</dim>
					<dim>8</dim>
				</port>
			</output>
		</layer>
		<layer id="69" name="/model.0/model/blocks.2/blocks.2.0/bn2/act/HardSwish" type="HSwish" version="opset4">
			<input>
				<port id="0" precision="FP32">
					<dim>1</dim>
					<dim>64</dim>
					<dim>6</dim>
					<dim>8</dim>
				</port>
			</input>
			<output>
				<port id="1" precision="FP32" names="/model.0/model/blocks.2/blocks.2.0/bn2/act/HardSwish_output_0">
					<dim>1</dim>
					<dim>64</dim>
					<dim>6</dim>
					<dim>8</dim>
				</port>
			</output>
		</layer>
		<layer id="70" name="Constant_551" type="Const" version="opset1">
			<data element_type="i64" shape="2" offset="4448" size="16" />
			<output>
				<port id="0" precision="I64">
					<dim>2</dim>
				</port>
			</output>
		</layer>
		<layer id="71" name="/model.0/model/blocks.2/blocks.2.0/se/ReduceMean" type="ReduceMean" version="opset1">
			<data keep_dims="true" />
			<input>
				<port id="0" precision="FP32">
					<dim>1</dim>
					<dim>64</dim>
					<dim>6</dim>
					<dim>8</dim>
				</port>
				<port id="1" precision="I64">
					<dim>2</dim>
				</port>
			</input>
			<output>
				<port id="2" precision="FP32" names="/model.0/model/blocks.2/blocks.2.0/se/ReduceMean_output_0">
					<dim>1</dim>
					<dim>64</dim>
					<dim>1</dim>
					<dim>1</dim>
				</port>
			</output>
		</layer>
		<layer id="72" name="model.0.model.blocks.2.0.se.conv_reduce.weight" type="Const" version="opset1">
			<data element_type="f32" shape="16, 64, 1, 1" offset="32504" size="4096" />
			<output>
				<port id="0" precision="FP32" names="model.0.model.blocks.2.0.se.conv_reduce.weight">
					<dim>16</dim>
					<dim>64</dim>
					<dim>1</dim>
					<dim>1</dim>
				</port>
			</output>
		</layer>
		<layer id="73" name="/model.0/model/blocks.2/blocks.2.0/se/conv_reduce/Conv/WithoutBiases" type="Convolution" version="opset1">
			<data strides="1, 1" dilations="1, 1" pads_begin="0, 0" pads_end="0, 0" auto_pad="explicit" />
			<input>
				<port id="0" precision="FP32">
					<dim>1</dim>
					<dim>64</dim>
					<dim>1</dim>
					<dim>1</dim>
				</port>
				<port id="1" precision="FP32">
					<dim>16</dim>
					<dim>64</dim>
					<dim>1</dim>
					<dim>1</dim>
				</port>
			</input>
			<output>
				<port id="2" precision="FP32">
					<dim>1</dim>
					<dim>16</dim>
					<dim>1</dim>
					<dim>1</dim>
				</port>
			</output>
		</layer>
		<layer id="74" name="Reshape_564" type="Const" version="opset1">
			<data element_type="f32" shape="1, 16, 1, 1" offset="36600" size="64" />
			<output>
				<port id="0" precision="FP32">
					<dim>1</dim>
					<dim>16</dim>
					<dim>1</dim>
					<dim>1</dim>
				</port>
			</output>
		</layer>
		<layer id="75" name="/model.0/model/blocks.2/blocks.2.0/se/conv_reduce/Conv" type="Add" version="opset1">
			<data auto_broadcast="numpy" />
			<input>
				<port id="0" precision="FP32">
					<dim>1</dim>
					<dim>16</dim>
					<dim>1</dim>
					<dim>1</dim>
				</port>
				<port id="1" precision="FP32">
					<dim>1</dim>
					<dim>16</dim>
					<dim>1</dim>
					<dim>1</dim>
				</port>
			</input>
			<output>
				<port id="2" precision="FP32" names="/model.0/model/blocks.2/blocks.2.0/se/conv_reduce/Conv_output_0">
					<dim>1</dim>
					<dim>16</dim>
					<dim>1</dim>
					<dim>1</dim>
				</port>
			</output>
		</layer>
		<layer id="76" name="/model.0/model/blocks.2/blocks.2.0/se/act1/Relu" type="ReLU" version="opset1">
			<input>
				<port id="0" precision="FP32">
					<dim>1</dim>
					<dim>16</dim>
					<dim>1</dim>
					<dim>1</dim>
				</port>
			</input>
			<output>
				<port id="1" precision="FP32" names="/model.0/model/blocks.2/blocks.2.0/se/act1/Relu_output_0">
					<dim>1</dim>
					<dim>16</dim>
					<dim>1</dim>
					<dim>1</dim>
				</port>
			</output>
		</layer>
		<layer id="77" name="model.0.model.blocks.2.0.se.conv_expand.weight" type="Const" version="opset1">
			<data element_type="f32" shape="64, 16, 1, 1" offset="36664" size="4096" />
			<output>
				<port id="0" precision="FP32" names="model.0.model.blocks.2.0.se.conv_expand.weight">
					<dim>64</dim>
					<dim>16</dim>
					<dim>1</dim>
					<dim>1</dim>
				</port>
			</output>
		</layer>
		<layer id="78" name="/model.0/model/blocks.2/blocks.2.0/se/conv_expand/Conv/WithoutBiases" type="Convolution" version="opset1">
			<data strides="1, 1" dilations="1, 1" pads_begin="0, 0" pads_end="0, 0" auto_pad="explicit" />
			<input>
				<port id="0" precision="FP32">
					<dim>1</dim>
					<dim>16</dim>
					<dim>1</dim>
					<dim>1</dim>
				</port>
				<port id="1" precision="FP32">
					<dim>64</dim>
					<dim>16</dim>
					<dim>1</dim>
					<dim>1</dim>
				</port>
			</input>
			<output>
				<port id="2" precision="FP32">
					<dim>1</dim>
					<dim>64</dim>
					<dim>1</dim>
					<dim>1</dim>
				</port>
			</output>
		</layer>
		<layer id="79" name="Reshape_578" type="Const" version="opset1">
			<data element_type="f32" shape="1, 64, 1, 1" offset="40760" size="256" />
			<output>
				<port id="0" precision="FP32">
					<dim>1</dim>
					<dim>64</dim>
					<dim>1</dim>
					<dim>1</dim>
				</port>
			</output>
		</layer>
		<layer id="80" name="/model.0/model/blocks.2/blocks.2.0/se/conv_expand/Conv" type="Add" version="opset1">
			<data auto_broadcast="numpy" />
			<input>
				<port id="0" precision="FP32">
					<dim>1</dim>
					<dim>64</dim>
					<dim>1</dim>
					<dim>1</dim>
				</port>
				<port id="1" precision="FP32">
					<dim>1</dim>
					<dim>64</dim>
					<dim>1</dim>
					<dim>1</dim>
				</port>
			</input>
			<output>
				<port id="2" precision="FP32" names="/model.0/model/blocks.2/blocks.2.0/se/conv_expand/Conv_output_0">
					<dim>1</dim>
					<dim>64</dim>
					<dim>1</dim>
					<dim>1</dim>
				</port>
			</output>
		</layer>
		<layer id="81" name="Constant_580" type="Const" version="opset1">
			<data element_type="f32" shape="" offset="5584" size="4" />
			<output>
				<port id="0" precision="FP32" />
			</output>
		</layer>
		<layer id="82" name="Constant_581" type="Const" version="opset1">
			<data element_type="f32" shape="" offset="5588" size="4" />
			<output>
				<port id="0" precision="FP32" />
			</output>
		</layer>
		<layer id="83" name="/model.0/model/blocks.2/blocks.2.0/se/gate/HardSigmoid" type="HardSigmoid" version="opset1">
			<input>
				<port id="0" precision="FP32">
					<dim>1</dim>
					<dim>64</dim>
					<dim>1</dim>
					<dim>1</dim>
				</port>
				<port id="1" precision="FP32" />
				<port id="2" precision="FP32" />
			</input>
			<output>
				<port id="3" precision="FP32" names="/model.0/model/blocks.2/blocks.2.0/se/gate/HardSigmoid_output_0">
					<dim>1</dim>
					<dim>64</dim>
					<dim>1</dim>
					<dim>1</dim>
				</port>
			</output>
		</layer>
		<layer id="84" name="/model.0/model/blocks.2/blocks.2.0/se/Mul" type="Multiply" version="opset1">
			<data auto_broadcast="numpy" />
			<input>
				<port id="0" precision="FP32">
					<dim>1</dim>
					<dim>64</dim>
					<dim>6</dim>
					<dim>8</dim>
				</port>
				<port id="1" precision="FP32">
					<dim>1</dim>
					<dim>64</dim>
					<dim>1</dim>
					<dim>1</dim>
				</port>
			</input>
			<output>
				<port id="2" precision="FP32" names="/model.0/model/blocks.2/blocks.2.0/se/Mul_output_0">
					<dim>1</dim>
					<dim>64</dim>
					<dim>6</dim>
					<dim>8</dim>
				</port>
			</output>
		</layer>
		<layer id="85" name="onnx::Conv_725" type="Const" version="opset1">
			<data element_type="f32" shape="24, 64, 1, 1" offset="41016" size="6144" />
			<output>
				<port id="0" precision="FP32" names="onnx::Conv_725">
					<dim>24</dim>
					<dim>64</dim>
					<dim>1</dim>
					<dim>1</dim>
				</port>
			</output>
		</layer>
		<layer id="86" name="/model.0/model/blocks.2/blocks.2.0/conv_pwl/Conv/WithoutBiases" type="Convolution" version="opset1">
			<data strides="1, 1" dilations="1, 1" pads_begin="0, 0" pads_end="0, 0" auto_pad="explicit" />
			<input>
				<port id="0" precision="FP32">
					<dim>1</dim>
					<dim>64</dim>
					<dim>6</dim>
					<dim>8</dim>
				</port>
				<port id="1" precision="FP32">
					<dim>24</dim>
					<dim>64</dim>
					<dim>1</dim>
					<dim>1</dim>
				</port>
			</input>
			<output>
				<port id="2" precision="FP32">
					<dim>1</dim>
					<dim>24</dim>
					<dim>6</dim>
					<dim>8</dim>
				</port>
			</output>
		</layer>
		<layer id="87" name="Reshape_595" type="Const" version="opset1">
			<data element_type="f32" shape="1, 24, 1, 1" offset="47160" size="96" />
			<output>
				<port id="0" precision="FP32">
					<dim>1</dim>
					<dim>24</dim>
					<dim>1</dim>
					<dim>1</dim>
				</port>
			</output>
		</layer>
		<layer id="88" name="/model.0/model/blocks.2/blocks.2.0/conv_pwl/Conv" type="Add" version="opset1">
			<data auto_broadcast="numpy" />
			<input>
				<port id="0" precision="FP32">
					<dim>1</dim>
					<dim>24</dim>
					<dim>6</dim>
					<dim>8</dim>
				</port>
				<port id="1" precision="FP32">
					<dim>1</dim>
					<dim>24</dim>
					<dim>1</dim>
					<dim>1</dim>
				</port>
			</input>
			<output>
				<port id="2" precision="FP32" names="/model.0/model/blocks.2/blocks.2.0/conv_pwl/Conv_output_0">
					<dim>1</dim>
					<dim>24</dim>
					<dim>6</dim>
					<dim>8</dim>
				</port>
			</output>
		</layer>
		<layer id="89" name="onnx::Conv_728" type="Const" version="opset1">
			<data element_type="f32" shape="144, 24, 1, 1" offset="47256" size="13824" />
			<output>
				<port id="0" precision="FP32" names="onnx::Conv_728">
					<dim>144</dim>
					<dim>24</dim>
					<dim>1</dim>
					<dim>1</dim>
				</port>
			</output>
		</layer>
		<layer id="90" name="/model.0/model/blocks.2/blocks.2.1/conv_pw/Conv/WithoutBiases" type="Convolution" version="opset1">
			<data strides="1, 1" dilations="1, 1" pads_begin="0, 0" pads_end="0, 0" auto_pad="explicit" />
			<input>
				<port id="0" precision="FP32">
					<dim>1</dim>
					<dim>24</dim>
					<dim>6</dim>
					<dim>8</dim>
				</port>
				<port id="1" precision="FP32">
					<dim>144</dim>
					<dim>24</dim>
					<dim>1</dim>
					<dim>1</dim>
				</port>
			</input>
			<output>
				<port id="2" precision="FP32">
					<dim>1</dim>
					<dim>144</dim>
					<dim>6</dim>
					<dim>8</dim>
				</port>
			</output>
		</layer>
		<layer id="91" name="Reshape_608" type="Const" version="opset1">
			<data element_type="f32" shape="1, 144, 1, 1" offset="61080" size="576" />
			<output>
				<port id="0" precision="FP32">
					<dim>1</dim>
					<dim>144</dim>
					<dim>1</dim>
					<dim>1</dim>
				</port>
			</output>
		</layer>
		<layer id="92" name="/model.0/model/blocks.2/blocks.2.1/conv_pw/Conv" type="Add" version="opset1">
			<data auto_broadcast="numpy" />
			<input>
				<port id="0" precision="FP32">
					<dim>1</dim>
					<dim>144</dim>
					<dim>6</dim>
					<dim>8</dim>
				</port>
				<port id="1" precision="FP32">
					<dim>1</dim>
					<dim>144</dim>
					<dim>1</dim>
					<dim>1</dim>
				</port>
			</input>
			<output>
				<port id="2" precision="FP32" names="/model.0/model/blocks.2/blocks.2.1/conv_pw/Conv_output_0">
					<dim>1</dim>
					<dim>144</dim>
					<dim>6</dim>
					<dim>8</dim>
				</port>
			</output>
		</layer>
		<layer id="93" name="/model.0/model/blocks.2/blocks.2.1/bn1/act/HardSwish" type="HSwish" version="opset4">
			<input>
				<port id="0" precision="FP32">
					<dim>1</dim>
					<dim>144</dim>
					<dim>6</dim>
					<dim>8</dim>
				</port>
			</input>
			<output>
				<port id="1" precision="FP32" names="/model.0/model/blocks.2/blocks.2.1/bn1/act/HardSwish_output_0">
					<dim>1</dim>
					<dim>144</dim>
					<dim>6</dim>
					<dim>8</dim>
				</port>
			</output>
		</layer>
		<layer id="94" name="Reshape_618" type="Const" version="opset1">
			<data element_type="f32" shape="144, 1, 1, 5, 5" offset="61656" size="14400" />
			<output>
				<port id="0" precision="FP32">
					<dim>144</dim>
					<dim>1</dim>
					<dim>1</dim>
					<dim>5</dim>
					<dim>5</dim>
				</port>
			</output>
		</layer>
		<layer id="95" name="/model.0/model/blocks.2/blocks.2.1/conv_dw/Conv/WithoutBiases" type="GroupConvolution" version="opset1">
			<data strides="1, 1" pads_begin="2, 2" pads_end="2, 2" dilations="1, 1" auto_pad="explicit" />
			<input>
				<port id="0" precision="FP32">
					<dim>1</dim>
					<dim>144</dim>
					<dim>6</dim>
					<dim>8</dim>
				</port>
				<port id="1" precision="FP32">
					<dim>144</dim>
					<dim>1</dim>
					<dim>1</dim>
					<dim>5</dim>
					<dim>5</dim>
				</port>
			</input>
			<output>
				<port id="2" precision="FP32">
					<dim>1</dim>
					<dim>144</dim>
					<dim>6</dim>
					<dim>8</dim>
				</port>
			</output>
		</layer>
		<layer id="96" name="Reshape_668" type="Const" version="opset1">
			<data element_type="f32" shape="1, 144, 1, 1" offset="76056" size="576" />
			<output>
				<port id="0" precision="FP32">
					<dim>1</dim>
					<dim>144</dim>
					<dim>1</dim>
					<dim>1</dim>
				</port>
			</output>
		</layer>
		<layer id="97" name="/model.0/model/blocks.2/blocks.2.1/conv_dw/Conv" type="Add" version="opset1">
			<data auto_broadcast="numpy" />
			<input>
				<port id="0" precision="FP32">
					<dim>1</dim>
					<dim>144</dim>
					<dim>6</dim>
					<dim>8</dim>
				</port>
				<port id="1" precision="FP32">
					<dim>1</dim>
					<dim>144</dim>
					<dim>1</dim>
					<dim>1</dim>
				</port>
			</input>
			<output>
				<port id="2" precision="FP32" names="/model.0/model/blocks.2/blocks.2.1/conv_dw/Conv_output_0">
					<dim>1</dim>
					<dim>144</dim>
					<dim>6</dim>
					<dim>8</dim>
				</port>
			</output>
		</layer>
		<layer id="98" name="/model.0/model/blocks.2/blocks.2.1/bn2/act/HardSwish" type="HSwish" version="opset4">
			<input>
				<port id="0" precision="FP32">
					<dim>1</dim>
					<dim>144</dim>
					<dim>6</dim>
					<dim>8</dim>
				</port>
			</input>
			<output>
				<port id="1" precision="FP32" names="/model.0/model/blocks.2/blocks.2.1/bn2/act/HardSwish_output_0">
					<dim>1</dim>
					<dim>144</dim>
					<dim>6</dim>
					<dim>8</dim>
				</port>
			</output>
		</layer>
		<layer id="99" name="Constant_671" type="Const" version="opset1">
			<data element_type="i64" shape="2" offset="4448" size="16" />
			<output>
				<port id="0" precision="I64">
					<dim>2</dim>
				</port>
			</output>
		</layer>
		<layer id="100" name="/model.0/model/blocks.2/blocks.2.1/se/ReduceMean" type="ReduceMean" version="opset1">
			<data keep_dims="true" />
			<input>
				<port id="0" precision="FP32">
					<dim>1</dim>
					<dim>144</dim>
					<dim>6</dim>
					<dim>8</dim>
				</port>
				<port id="1" precision="I64">
					<dim>2</dim>
				</port>
			</input>
			<output>
				<port id="2" precision="FP32" names="/model.0/model/blocks.2/blocks.2.1/se/ReduceMean_output_0">
					<dim>1</dim>
					<dim>144</dim>
					<dim>1</dim>
					<dim>1</dim>
				</port>
			</output>
		</layer>
		<layer id="101" name="model.0.model.blocks.2.1.se.conv_reduce.weight" type="Const" version="opset1">
			<data element_type="f32" shape="40, 144, 1, 1" offset="76632" size="23040" />
			<output>
				<port id="0" precision="FP32" names="model.0.model.blocks.2.1.se.conv_reduce.weight">
					<dim>40</dim>
					<dim>144</dim>
					<dim>1</dim>
					<dim>1</dim>
				</port>
			</output>
		</layer>
		<layer id="102" name="/model.0/model/blocks.2/blocks.2.1/se/conv_reduce/Conv/WithoutBiases" type="Convolution" version="opset1">
			<data strides="1, 1" dilations="1, 1" pads_begin="0, 0" pads_end="0, 0" auto_pad="explicit" />
			<input>
				<port id="0" precision="FP32">
					<dim>1</dim>
					<dim>144</dim>
					<dim>1</dim>
					<dim>1</dim>
				</port>
				<port id="1" precision="FP32">
					<dim>40</dim>
					<dim>144</dim>
					<dim>1</dim>
					<dim>1</dim>
				</port>
			</input>
			<output>
				<port id="2" precision="FP32">
					<dim>1</dim>
					<dim>40</dim>
					<dim>1</dim>
					<dim>1</dim>
				</port>
			</output>
		</layer>
		<layer id="103" name="Reshape_684" type="Const" version="opset1">
			<data element_type="f32" shape="1, 40, 1, 1" offset="99672" size="160" />
			<output>
				<port id="0" precision="FP32">
					<dim>1</dim>
					<dim>40</dim>
					<dim>1</dim>
					<dim>1</dim>
				</port>
			</output>
		</layer>
		<layer id="104" name="/model.0/model/blocks.2/blocks.2.1/se/conv_reduce/Conv" type="Add" version="opset1">
			<data auto_broadcast="numpy" />
			<input>
				<port id="0" precision="FP32">
					<dim>1</dim>
					<dim>40</dim>
					<dim>1</dim>
					<dim>1</dim>
				</port>
				<port id="1" precision="FP32">
					<dim>1</dim>
					<dim>40</dim>
					<dim>1</dim>
					<dim>1</dim>
				</port>
			</input>
			<output>
				<port id="2" precision="FP32" names="/model.0/model/blocks.2/blocks.2.1/se/conv_reduce/Conv_output_0">
					<dim>1</dim>
					<dim>40</dim>
					<dim>1</dim>
					<dim>1</dim>
				</port>
			</output>
		</layer>
		<layer id="105" name="/model.0/model/blocks.2/blocks.2.1/se/act1/Relu" type="ReLU" version="opset1">
			<input>
				<port id="0" precision="FP32">
					<dim>1</dim>
					<dim>40</dim>
					<dim>1</dim>
					<dim>1</dim>
				</port>
			</input>
			<output>
				<port id="1" precision="FP32" names="/model.0/model/blocks.2/blocks.2.1/se/act1/Relu_output_0">
					<dim>1</dim>
					<dim>40</dim>
					<dim>1</dim>
					<dim>1</dim>
				</port>
			</output>
		</layer>
		<layer id="106" name="model.0.model.blocks.2.1.se.conv_expand.weight" type="Const" version="opset1">
			<data element_type="f32" shape="144, 40, 1, 1" offset="99832" size="23040" />
			<output>
				<port id="0" precision="FP32" names="model.0.model.blocks.2.1.se.conv_expand.weight">
					<dim>144</dim>
					<dim>40</dim>
					<dim>1</dim>
					<dim>1</dim>
				</port>
			</output>
		</layer>
		<layer id="107" name="/model.0/model/blocks.2/blocks.2.1/se/conv_expand/Conv/WithoutBiases" type="Convolution" version="opset1">
			<data strides="1, 1" dilations="1, 1" pads_begin="0, 0" pads_end="0, 0" auto_pad="explicit" />
			<input>
				<port id="0" precision="FP32">
					<dim>1</dim>
					<dim>40</dim>
					<dim>1</dim>
					<dim>1</dim>
				</port>
				<port id="1" precision="FP32">
					<dim>144</dim>
					<dim>40</dim>
					<dim>1</dim>
					<dim>1</dim>
				</port>
			</input>
			<output>
				<port id="2" precision="FP32">
					<dim>1</dim>
					<dim>144</dim>
					<dim>1</dim>
					<dim>1</dim>
				</port>
			</output>
		</layer>
		<layer id="108" name="Reshape_698" type="Const" version="opset1">
			<data element_type="f32" shape="1, 144, 1, 1" offset="122872" size="576" />
			<output>
				<port id="0" precision="FP32">
					<dim>1</dim>
					<dim>144</dim>
					<dim>1</dim>
					<dim>1</dim>
				</port>
			</output>
		</layer>
		<layer id="109" name="/model.0/model/blocks.2/blocks.2.1/se/conv_expand/Conv" type="Add" version="opset1">
			<data auto_broadcast="numpy" />
			<input>
				<port id="0" precision="FP32">
					<dim>1</dim>
					<dim>144</dim>
					<dim>1</dim>
					<dim>1</dim>
				</port>
				<port id="1" precision="FP32">
					<dim>1</dim>
					<dim>144</dim>
					<dim>1</dim>
					<dim>1</dim>
				</port>
			</input>
			<output>
				<port id="2" precision="FP32" names="/model.0/model/blocks.2/blocks.2.1/se/conv_expand/Conv_output_0">
					<dim>1</dim>
					<dim>144</dim>
					<dim>1</dim>
					<dim>1</dim>
				</port>
			</output>
		</layer>
		<layer id="110" name="Constant_700" type="Const" version="opset1">
			<data element_type="f32" shape="" offset="5584" size="4" />
			<output>
				<port id="0" precision="FP32" />
			</output>
		</layer>
		<layer id="111" name="Constant_701" type="Const" version="opset1">
			<data element_type="f32" shape="" offset="5588" size="4" />
			<output>
				<port id="0" precision="FP32" />
			</output>
		</layer>
		<layer id="112" name="/model.0/model/blocks.2/blocks.2.1/se/gate/HardSigmoid" type="HardSigmoid" version="opset1">
			<input>
				<port id="0" precision="FP32">
					<dim>1</dim>
					<dim>144</dim>
					<dim>1</dim>
					<dim>1</dim>
				</port>
				<port id="1" precision="FP32" />
				<port id="2" precision="FP32" />
			</input>
			<output>
				<port id="3" precision="FP32" names="/model.0/model/blocks.2/blocks.2.1/se/gate/HardSigmoid_output_0">
					<dim>1</dim>
					<dim>144</dim>
					<dim>1</dim>
					<dim>1</dim>
				</port>
			</output>
		</layer>
		<layer id="113" name="/model.0/model/blocks.2/blocks.2.1/se/Mul" type="Multiply" version="opset1">
			<data auto_broadcast="numpy" />
			<input>
				<port id="0" precision="FP32">
					<dim>1</dim>
					<dim>144</dim>
					<dim>6</dim>
					<dim>8</dim>
				</port>
				<port id="1" precision="FP32">
					<dim>1</dim>
					<dim>144</dim>
					<dim>1</dim>
					<dim>1</dim>
				</port>
			</input>
			<output>
				<port id="2" precision="FP32" names="/model.0/model/blocks.2/blocks.2.1/se/Mul_output_0">
					<dim>1</dim>
					<dim>144</dim>
					<dim>6</dim>
					<dim>8</dim>
				</port>
			</output>
		</layer>
		<layer id="114" name="onnx::Conv_734" type="Const" version="opset1">
			<data element_type="f32" shape="24, 144, 1, 1" offset="123448" size="13824" />
			<output>
				<port id="0" precision="FP32" names="onnx::Conv_734">
					<dim>24</dim>
					<dim>144</dim>
					<dim>1</dim>
					<dim>1</dim>
				</port>
			</output>
		</layer>
		<layer id="115" name="/model.0/model/blocks.2/blocks.2.1/conv_pwl/Conv/WithoutBiases" type="Convolution" version="opset1">
			<data strides="1, 1" dilations="1, 1" pads_begin="0, 0" pads_end="0, 0" auto_pad="explicit" />
			<input>
				<port id="0" precision="FP32">
					<dim>1</dim>
					<dim>144</dim>
					<dim>6</dim>
					<dim>8</dim>
				</port>
				<port id="1" precision="FP32">
					<dim>24</dim>
					<dim>144</dim>
					<dim>1</dim>
					<dim>1</dim>
				</port>
			</input>
			<output>
				<port id="2" precision="FP32">
					<dim>1</dim>
					<dim>24</dim>
					<dim>6</dim>
					<dim>8</dim>
				</port>
			</output>
		</layer>
		<layer id="116" name="Reshape_715" type="Const" version="opset1">
			<data element_type="f32" shape="1, 24, 1, 1" offset="137272" size="96" />
			<output>
				<port id="0" precision="FP32">
					<dim>1</dim>
					<dim>24</dim>
					<dim>1</dim>
					<dim>1</dim>
				</port>
			</output>
		</layer>
		<layer id="117" name="/model.0/model/blocks.2/blocks.2.1/conv_pwl/Conv" type="Add" version="opset1">
			<data auto_broadcast="numpy" />
			<input>
				<port id="0" precision="FP32">
					<dim>1</dim>
					<dim>24</dim>
					<dim>6</dim>
					<dim>8</dim>
				</port>
				<port id="1" precision="FP32">
					<dim>1</dim>
					<dim>24</dim>
					<dim>1</dim>
					<dim>1</dim>
				</port>
			</input>
			<output>
				<port id="2" precision="FP32" names="/model.0/model/blocks.2/blocks.2.1/conv_pwl/Conv_output_0">
					<dim>1</dim>
					<dim>24</dim>
					<dim>6</dim>
					<dim>8</dim>
				</port>
			</output>
		</layer>
		<layer id="118" name="/model.0/model/blocks.2/blocks.2.1/Add" type="Add" version="opset1">
			<data auto_broadcast="numpy" />
			<input>
				<port id="0" precision="FP32">
					<dim>1</dim>
					<dim>24</dim>
					<dim>6</dim>
					<dim>8</dim>
				</port>
				<port id="1" precision="FP32">
					<dim>1</dim>
					<dim>24</dim>
					<dim>6</dim>
					<dim>8</dim>
				</port>
			</input>
			<output>
				<port id="2" precision="FP32" names="/model.0/model/blocks.2/blocks.2.1/Add_output_0">
					<dim>1</dim>
					<dim>24</dim>
					<dim>6</dim>
					<dim>8</dim>
				</port>
			</output>
		</layer>
		<layer id="119" name="onnx::Conv_737" type="Const" version="opset1">
			<data element_type="f32" shape="144, 24, 1, 1" offset="137368" size="13824" />
			<output>
				<port id="0" precision="FP32" names="onnx::Conv_737">
					<dim>144</dim>
					<dim>24</dim>
					<dim>1</dim>
					<dim>1</dim>
				</port>
			</output>
		</layer>
		<layer id="120" name="/model.0/model/blocks.2/blocks.2.2/conv_pw/Conv/WithoutBiases" type="Convolution" version="opset1">
			<data strides="1, 1" dilations="1, 1" pads_begin="0, 0" pads_end="0, 0" auto_pad="explicit" />
			<input>
				<port id="0" precision="FP32">
					<dim>1</dim>
					<dim>24</dim>
					<dim>6</dim>
					<dim>8</dim>
				</port>
				<port id="1" precision="FP32">
					<dim>144</dim>
					<dim>24</dim>
					<dim>1</dim>
					<dim>1</dim>
				</port>
			</input>
			<output>
				<port id="2" precision="FP32">
					<dim>1</dim>
					<dim>144</dim>
					<dim>6</dim>
					<dim>8</dim>
				</port>
			</output>
		</layer>
		<layer id="121" name="Reshape_729" type="Const" version="opset1">
			<data element_type="f32" shape="1, 144, 1, 1" offset="151192" size="576" />
			<output>
				<port id="0" precision="FP32">
					<dim>1</dim>
					<dim>144</dim>
					<dim>1</dim>
					<dim>1</dim>
				</port>
			</output>
		</layer>
		<layer id="122" name="/model.0/model/blocks.2/blocks.2.2/conv_pw/Conv" type="Add" version="opset1">
			<data auto_broadcast="numpy" />
			<input>
				<port id="0" precision="FP32">
					<dim>1</dim>
					<dim>144</dim>
					<dim>6</dim>
					<dim>8</dim>
				</port>
				<port id="1" precision="FP32">
					<dim>1</dim>
					<dim>144</dim>
					<dim>1</dim>
					<dim>1</dim>
				</port>
			</input>
			<output>
				<port id="2" precision="FP32" names="/model.0/model/blocks.2/blocks.2.2/conv_pw/Conv_output_0">
					<dim>1</dim>
					<dim>144</dim>
					<dim>6</dim>
					<dim>8</dim>
				</port>
			</output>
		</layer>
		<layer id="123" name="/model.0/model/blocks.2/blocks.2.2/bn1/act/HardSwish" type="HSwish" version="opset4">
			<input>
				<port id="0" precision="FP32">
					<dim>1</dim>
					<dim>144</dim>
					<dim>6</dim>
					<dim>8</dim>
				</port>
			</input>
			<output>
				<port id="1" precision="FP32" names="/model.0/model/blocks.2/blocks.2.2/bn1/act/HardSwish_output_0">
					<dim>1</dim>
					<dim>144</dim>
					<dim>6</dim>
					<dim>8</dim>
				</port>
			</output>
		</layer>
		<layer id="124" name="Reshape_739" type="Const" version="opset1">
			<data element_type="f32" shape="144, 1, 1, 5, 5" offset="151768" size="14400" />
			<output>
				<port id="0" precision="FP32">
					<dim>144</dim>
					<dim>1</dim>
					<dim>1</dim>
					<dim>5</dim>
					<dim>5</dim>
				</port>
			</output>
		</layer>
		<layer id="125" name="/model.0/model/blocks.2/blocks.2.2/conv_dw/Conv/WithoutBiases" type="GroupConvolution" version="opset1">
			<data strides="1, 1" pads_begin="2, 2" pads_end="2, 2" dilations="1, 1" auto_pad="explicit" />
			<input>
				<port id="0" precision="FP32">
					<dim>1</dim>
					<dim>144</dim>
					<dim>6</dim>
					<dim>8</dim>
				</port>
				<port id="1" precision="FP32">
					<dim>144</dim>
					<dim>1</dim>
					<dim>1</dim>
					<dim>5</dim>
					<dim>5</dim>
				</port>
			</input>
			<output>
				<port id="2" precision="FP32">
					<dim>1</dim>
					<dim>144</dim>
					<dim>6</dim>
					<dim>8</dim>
				</port>
			</output>
		</layer>
		<layer id="126" name="Reshape_789" type="Const" version="opset1">
			<data element_type="f32" shape="1, 144, 1, 1" offset="166168" size="576" />
			<output>
				<port id="0" precision="FP32">
					<dim>1</dim>
					<dim>144</dim>
					<dim>1</dim>
					<dim>1</dim>
				</port>
			</output>
		</layer>
		<layer id="127" name="/model.0/model/blocks.2/blocks.2.2/conv_dw/Conv" type="Add" version="opset1">
			<data auto_broadcast="numpy" />
			<input>
				<port id="0" precision="FP32">
					<dim>1</dim>
					<dim>144</dim>
					<dim>6</dim>
					<dim>8</dim>
				</port>
				<port id="1" precision="FP32">
					<dim>1</dim>
					<dim>144</dim>
					<dim>1</dim>
					<dim>1</dim>
				</port>
			</input>
			<output>
				<port id="2" precision="FP32" names="/model.0/model/blocks.2/blocks.2.2/conv_dw/Conv_output_0">
					<dim>1</dim>
					<dim>144</dim>
					<dim>6</dim>
					<dim>8</dim>
				</port>
			</output>
		</layer>
		<layer id="128" name="/model.0/model/blocks.2/blocks.2.2/bn2/act/HardSwish" type="HSwish" version="opset4">
			<input>
				<port id="0" precision="FP32">
					<dim>1</dim>
					<dim>144</dim>
					<dim>6</dim>
					<dim>8</dim>
				</port>
			</input>
			<output>
				<port id="1" precision="FP32" names="/model.0/model/blocks.2/blocks.2.2/bn2/act/HardSwish_output_0">
					<dim>1</dim>
					<dim>144</dim>
					<dim>6</dim>
					<dim>8</dim>
				</port>
			</output>
		</layer>
		<layer id="129" name="Constant_792" type="Const" version="opset1">
			<data element_type="i64" shape="2" offset="4448" size="16" />
			<output>
				<port id="0" precision="I64">
					<dim>2</dim>
				</port>
			</output>
		</layer>
		<layer id="130" name="/model.0/model/blocks.2/blocks.2.2/se/ReduceMean" type="ReduceMean" version="opset1">
			<data keep_dims="true" />
			<input>
				<port id="0" precision="FP32">
					<dim>1</dim>
					<dim>144</dim>
					<dim>6</dim>
					<dim>8</dim>
				</port>
				<port id="1" precision="I64">
					<dim>2</dim>
				</port>
			</input>
			<output>
				<port id="2" precision="FP32" names="/model.0/model/blocks.2/blocks.2.2/se/ReduceMean_output_0">
					<dim>1</dim>
					<dim>144</dim>
					<dim>1</dim>
					<dim>1</dim>
				</port>
			</output>
		</layer>
		<layer id="131" name="model.0.model.blocks.2.2.se.conv_reduce.weight" type="Const" version="opset1">
			<data element_type="f32" shape="40, 144, 1, 1" offset="166744" size="23040" />
			<output>
				<port id="0" precision="FP32" names="model.0.model.blocks.2.2.se.conv_reduce.weight">
					<dim>40</dim>
					<dim>144</dim>
					<dim>1</dim>
					<dim>1</dim>
				</port>
			</output>
		</layer>
		<layer id="132" name="/model.0/model/blocks.2/blocks.2.2/se/conv_reduce/Conv/WithoutBiases" type="Convolution" version="opset1">
			<data strides="1, 1" dilations="1, 1" pads_begin="0, 0" pads_end="0, 0" auto_pad="explicit" />
			<input>
				<port id="0" precision="FP32">
					<dim>1</dim>
					<dim>144</dim>
					<dim>1</dim>
					<dim>1</dim>
				</port>
				<port id="1" precision="FP32">
					<dim>40</dim>
					<dim>144</dim>
					<dim>1</dim>
					<dim>1</dim>
				</port>
			</input>
			<output>
				<port id="2" precision="FP32">
					<dim>1</dim>
					<dim>40</dim>
					<dim>1</dim>
					<dim>1</dim>
				</port>
			</output>
		</layer>
		<layer id="133" name="Reshape_805" type="Const" version="opset1">
			<data element_type="f32" shape="1, 40, 1, 1" offset="189784" size="160" />
			<output>
				<port id="0" precision="FP32">
					<dim>1</dim>
					<dim>40</dim>
					<dim>1</dim>
					<dim>1</dim>
				</port>
			</output>
		</layer>
		<layer id="134" name="/model.0/model/blocks.2/blocks.2.2/se/conv_reduce/Conv" type="Add" version="opset1">
			<data auto_broadcast="numpy" />
			<input>
				<port id="0" precision="FP32">
					<dim>1</dim>
					<dim>40</dim>
					<dim>1</dim>
					<dim>1</dim>
				</port>
				<port id="1" precision="FP32">
					<dim>1</dim>
					<dim>40</dim>
					<dim>1</dim>
					<dim>1</dim>
				</port>
			</input>
			<output>
				<port id="2" precision="FP32" names="/model.0/model/blocks.2/blocks.2.2/se/conv_reduce/Conv_output_0">
					<dim>1</dim>
					<dim>40</dim>
					<dim>1</dim>
					<dim>1</dim>
				</port>
			</output>
		</layer>
		<layer id="135" name="/model.0/model/blocks.2/blocks.2.2/se/act1/Relu" type="ReLU" version="opset1">
			<input>
				<port id="0" precision="FP32">
					<dim>1</dim>
					<dim>40</dim>
					<dim>1</dim>
					<dim>1</dim>
				</port>
			</input>
			<output>
				<port id="1" precision="FP32" names="/model.0/model/blocks.2/blocks.2.2/se/act1/Relu_output_0">
					<dim>1</dim>
					<dim>40</dim>
					<dim>1</dim>
					<dim>1</dim>
				</port>
			</output>
		</layer>
		<layer id="136" name="model.0.model.blocks.2.2.se.conv_expand.weight" type="Const" version="opset1">
			<data element_type="f32" shape="144, 40, 1, 1" offset="189944" size="23040" />
			<output>
				<port id="0" precision="FP32" names="model.0.model.blocks.2.2.se.conv_expand.weight">
					<dim>144</dim>
					<dim>40</dim>
					<dim>1</dim>
					<dim>1</dim>
				</port>
			</output>
		</layer>
		<layer id="137" name="/model.0/model/blocks.2/blocks.2.2/se/conv_expand/Conv/WithoutBiases" type="Convolution" version="opset1">
			<data strides="1, 1" dilations="1, 1" pads_begin="0, 0" pads_end="0, 0" auto_pad="explicit" />
			<input>
				<port id="0" precision="FP32">
					<dim>1</dim>
					<dim>40</dim>
					<dim>1</dim>
					<dim>1</dim>
				</port>
				<port id="1" precision="FP32">
					<dim>144</dim>
					<dim>40</dim>
					<dim>1</dim>
					<dim>1</dim>
				</port>
			</input>
			<output>
				<port id="2" precision="FP32">
					<dim>1</dim>
					<dim>144</dim>
					<dim>1</dim>
					<dim>1</dim>
				</port>
			</output>
		</layer>
		<layer id="138" name="Reshape_819" type="Const" version="opset1">
			<data element_type="f32" shape="1, 144, 1, 1" offset="212984" size="576" />
			<output>
				<port id="0" precision="FP32">
					<dim>1</dim>
					<dim>144</dim>
					<dim>1</dim>
					<dim>1</dim>
				</port>
			</output>
		</layer>
		<layer id="139" name="/model.0/model/blocks.2/blocks.2.2/se/conv_expand/Conv" type="Add" version="opset1">
			<data auto_broadcast="numpy" />
			<input>
				<port id="0" precision="FP32">
					<dim>1</dim>
					<dim>144</dim>
					<dim>1</dim>
					<dim>1</dim>
				</port>
				<port id="1" precision="FP32">
					<dim>1</dim>
					<dim>144</dim>
					<dim>1</dim>
					<dim>1</dim>
				</port>
			</input>
			<output>
				<port id="2" precision="FP32" names="/model.0/model/blocks.2/blocks.2.2/se/conv_expand/Conv_output_0">
					<dim>1</dim>
					<dim>144</dim>
					<dim>1</dim>
					<dim>1</dim>
				</port>
			</output>
		</layer>
		<layer id="140" name="Constant_821" type="Const" version="opset1">
			<data element_type="f32" shape="" offset="5584" size="4" />
			<output>
				<port id="0" precision="FP32" />
			</output>
		</layer>
		<layer id="141" name="Constant_822" type="Const" version="opset1">
			<data element_type="f32" shape="" offset="5588" size="4" />
			<output>
				<port id="0" precision="FP32" />
			</output>
		</layer>
		<layer id="142" name="/model.0/model/blocks.2/blocks.2.2/se/gate/HardSigmoid" type="HardSigmoid" version="opset1">
			<input>
				<port id="0" precision="FP32">
					<dim>1</dim>
					<dim>144</dim>
					<dim>1</dim>
					<dim>1</dim>
				</port>
				<port id="1" precision="FP32" />
				<port id="2" precision="FP32" />
			</input>
			<output>
				<port id="3" precision="FP32" names="/model.0/model/blocks.2/blocks.2.2/se/gate/HardSigmoid_output_0">
					<dim>1</dim>
					<dim>144</dim>
					<dim>1</dim>
					<dim>1</dim>
				</port>
			</output>
		</layer>
		<layer id="143" name="/model.0/model/blocks.2/blocks.2.2/se/Mul" type="Multiply" version="opset1">
			<data auto_broadcast="numpy" />
			<input>
				<port id="0" precision="FP32">
					<dim>1</dim>
					<dim>144</dim>
					<dim>6</dim>
					<dim>8</dim>
				</port>
				<port id="1" precision="FP32">
					<dim>1</dim>
					<dim>144</dim>
					<dim>1</dim>
					<dim>1</dim>
				</port>
			</input>
			<output>
				<port id="2" precision="FP32" names="/model.0/model/blocks.2/blocks.2.2/se/Mul_output_0">
					<dim>1</dim>
					<dim>144</dim>
					<dim>6</dim>
					<dim>8</dim>
				</port>
			</output>
		</layer>
		<layer id="144" name="onnx::Conv_743" type="Const" version="opset1">
			<data element_type="f32" shape="24, 144, 1, 1" offset="213560" size="13824" />
			<output>
				<port id="0" precision="FP32" names="onnx::Conv_743">
					<dim>24</dim>
					<dim>144</dim>
					<dim>1</dim>
					<dim>1</dim>
				</port>
			</output>
		</layer>
		<layer id="145" name="/model.0/model/blocks.2/blocks.2.2/conv_pwl/Conv/WithoutBiases" type="Convolution" version="opset1">
			<data strides="1, 1" dilations="1, 1" pads_begin="0, 0" pads_end="0, 0" auto_pad="explicit" />
			<input>
				<port id="0" precision="FP32">
					<dim>1</dim>
					<dim>144</dim>
					<dim>6</dim>
					<dim>8</dim>
				</port>
				<port id="1" precision="FP32">
					<dim>24</dim>
					<dim>144</dim>
					<dim>1</dim>
					<dim>1</dim>
				</port>
			</input>
			<output>
				<port id="2" precision="FP32">
					<dim>1</dim>
					<dim>24</dim>
					<dim>6</dim>
					<dim>8</dim>
				</port>
			</output>
		</layer>
		<layer id="146" name="Reshape_836" type="Const" version="opset1">
			<data element_type="f32" shape="1, 24, 1, 1" offset="227384" size="96" />
			<output>
				<port id="0" precision="FP32">
					<dim>1</dim>
					<dim>24</dim>
					<dim>1</dim>
					<dim>1</dim>
				</port>
			</output>
		</layer>
		<layer id="147" name="/model.0/model/blocks.2/blocks.2.2/conv_pwl/Conv" type="Add" version="opset1">
			<data auto_broadcast="numpy" />
			<input>
				<port id="0" precision="FP32">
					<dim>1</dim>
					<dim>24</dim>
					<dim>6</dim>
					<dim>8</dim>
				</port>
				<port id="1" precision="FP32">
					<dim>1</dim>
					<dim>24</dim>
					<dim>1</dim>
					<dim>1</dim>
				</port>
			</input>
			<output>
				<port id="2" precision="FP32" names="/model.0/model/blocks.2/blocks.2.2/conv_pwl/Conv_output_0">
					<dim>1</dim>
					<dim>24</dim>
					<dim>6</dim>
					<dim>8</dim>
				</port>
			</output>
		</layer>
		<layer id="148" name="/model.0/model/blocks.2/blocks.2.2/Add" type="Add" version="opset1">
			<data auto_broadcast="numpy" />
			<input>
				<port id="0" precision="FP32">
					<dim>1</dim>
					<dim>24</dim>
					<dim>6</dim>
					<dim>8</dim>
				</port>
				<port id="1" precision="FP32">
					<dim>1</dim>
					<dim>24</dim>
					<dim>6</dim>
					<dim>8</dim>
				</port>
			</input>
			<output>
				<port id="2" precision="FP32" names="/model.0/model/blocks.2/blocks.2.2/Add_output_0">
					<dim>1</dim>
					<dim>24</dim>
					<dim>6</dim>
					<dim>8</dim>
				</port>
			</output>
		</layer>
		<layer id="149" name="onnx::Conv_746" type="Const" version="opset1">
			<data element_type="f32" shape="72, 24, 1, 1" offset="227480" size="6912" />
			<output>
				<port id="0" precision="FP32" names="onnx::Conv_746">
					<dim>72</dim>
					<dim>24</dim>
					<dim>1</dim>
					<dim>1</dim>
				</port>
			</output>
		</layer>
		<layer id="150" name="/model.0/model/blocks.3/blocks.3.0/conv_pw/Conv/WithoutBiases" type="Convolution" version="opset1">
			<data strides="1, 1" dilations="1, 1" pads_begin="0, 0" pads_end="0, 0" auto_pad="explicit" />
			<input>
				<port id="0" precision="FP32">
					<dim>1</dim>
					<dim>24</dim>
					<dim>6</dim>
					<dim>8</dim>
				</port>
				<port id="1" precision="FP32">
					<dim>72</dim>
					<dim>24</dim>
					<dim>1</dim>
					<dim>1</dim>
				</port>
			</input>
			<output>
				<port id="2" precision="FP32">
					<dim>1</dim>
					<dim>72</dim>
					<dim>6</dim>
					<dim>8</dim>
				</port>
			</output>
		</layer>
		<layer id="151" name="Reshape_850" type="Const" version="opset1">
			<data element_type="f32" shape="1, 72, 1, 1" offset="234392" size="288" />
			<output>
				<port id="0" precision="FP32">
					<dim>1</dim>
					<dim>72</dim>
					<dim>1</dim>
					<dim>1</dim>
				</port>
			</output>
		</layer>
		<layer id="152" name="/model.0/model/blocks.3/blocks.3.0/conv_pw/Conv" type="Add" version="opset1">
			<data auto_broadcast="numpy" />
			<input>
				<port id="0" precision="FP32">
					<dim>1</dim>
					<dim>72</dim>
					<dim>6</dim>
					<dim>8</dim>
				</port>
				<port id="1" precision="FP32">
					<dim>1</dim>
					<dim>72</dim>
					<dim>1</dim>
					<dim>1</dim>
				</port>
			</input>
			<output>
				<port id="2" precision="FP32" names="/model.0/model/blocks.3/blocks.3.0/conv_pw/Conv_output_0">
					<dim>1</dim>
					<dim>72</dim>
					<dim>6</dim>
					<dim>8</dim>
				</port>
			</output>
		</layer>
		<layer id="153" name="/model.0/model/blocks.3/blocks.3.0/bn1/act/HardSwish" type="HSwish" version="opset4">
			<input>
				<port id="0" precision="FP32">
					<dim>1</dim>
					<dim>72</dim>
					<dim>6</dim>
					<dim>8</dim>
				</port>
			</input>
			<output>
				<port id="1" precision="FP32" names="/model.0/model/blocks.3/blocks.3.0/bn1/act/HardSwish_output_0">
					<dim>1</dim>
					<dim>72</dim>
					<dim>6</dim>
					<dim>8</dim>
				</port>
			</output>
		</layer>
		<layer id="154" name="Reshape_860" type="Const" version="opset1">
			<data element_type="f32" shape="72, 1, 1, 5, 5" offset="234680" size="7200" />
			<output>
				<port id="0" precision="FP32">
					<dim>72</dim>
					<dim>1</dim>
					<dim>1</dim>
					<dim>5</dim>
					<dim>5</dim>
				</port>
			</output>
		</layer>
		<layer id="155" name="/model.0/model/blocks.3/blocks.3.0/conv_dw/Conv/WithoutBiases" type="GroupConvolution" version="opset1">
			<data strides="1, 1" pads_begin="2, 2" pads_end="2, 2" dilations="1, 1" auto_pad="explicit" />
			<input>
				<port id="0" precision="FP32">
					<dim>1</dim>
					<dim>72</dim>
					<dim>6</dim>
					<dim>8</dim>
				</port>
				<port id="1" precision="FP32">
					<dim>72</dim>
					<dim>1</dim>
					<dim>1</dim>
					<dim>5</dim>
					<dim>5</dim>
				</port>
			</input>
			<output>
				<port id="2" precision="FP32">
					<dim>1</dim>
					<dim>72</dim>
					<dim>6</dim>
					<dim>8</dim>
				</port>
			</output>
		</layer>
		<layer id="156" name="Reshape_910" type="Const" version="opset1">
			<data element_type="f32" shape="1, 72, 1, 1" offset="241880" size="288" />
			<output>
				<port id="0" precision="FP32">
					<dim>1</dim>
					<dim>72</dim>
					<dim>1</dim>
					<dim>1</dim>
				</port>
			</output>
		</layer>
		<layer id="157" name="/model.0/model/blocks.3/blocks.3.0/conv_dw/Conv" type="Add" version="opset1">
			<data auto_broadcast="numpy" />
			<input>
				<port id="0" precision="FP32">
					<dim>1</dim>
					<dim>72</dim>
					<dim>6</dim>
					<dim>8</dim>
				</port>
				<port id="1" precision="FP32">
					<dim>1</dim>
					<dim>72</dim>
					<dim>1</dim>
					<dim>1</dim>
				</port>
			</input>
			<output>
				<port id="2" precision="FP32" names="/model.0/model/blocks.3/blocks.3.0/conv_dw/Conv_output_0">
					<dim>1</dim>
					<dim>72</dim>
					<dim>6</dim>
					<dim>8</dim>
				</port>
			</output>
		</layer>
		<layer id="158" name="/model.0/model/blocks.3/blocks.3.0/bn2/act/HardSwish" type="HSwish" version="opset4">
			<input>
				<port id="0" precision="FP32">
					<dim>1</dim>
					<dim>72</dim>
					<dim>6</dim>
					<dim>8</dim>
				</port>
			</input>
			<output>
				<port id="1" precision="FP32" names="/model.0/model/blocks.3/blocks.3.0/bn2/act/HardSwish_output_0">
					<dim>1</dim>
					<dim>72</dim>
					<dim>6</dim>
					<dim>8</dim>
				</port>
			</output>
		</layer>
		<layer id="159" name="Constant_913" type="Const" version="opset1">
			<data element_type="i64" shape="2" offset="4448" size="16" />
			<output>
				<port id="0" precision="I64">
					<dim>2</dim>
				</port>
			</output>
		</layer>
		<layer id="160" name="/model.0/model/blocks.3/blocks.3.0/se/ReduceMean" type="ReduceMean" version="opset1">
			<data keep_dims="true" />
			<input>
				<port id="0" precision="FP32">
					<dim>1</dim>
					<dim>72</dim>
					<dim>6</dim>
					<dim>8</dim>
				</port>
				<port id="1" precision="I64">
					<dim>2</dim>
				</port>
			</input>
			<output>
				<port id="2" precision="FP32" names="/model.0/model/blocks.3/blocks.3.0/se/ReduceMean_output_0">
					<dim>1</dim>
					<dim>72</dim>
					<dim>1</dim>
					<dim>1</dim>
				</port>
			</output>
		</layer>
		<layer id="161" name="model.0.model.blocks.3.0.se.conv_reduce.weight" type="Const" version="opset1">
			<data element_type="f32" shape="24, 72, 1, 1" offset="242168" size="6912" />
			<output>
				<port id="0" precision="FP32" names="model.0.model.blocks.3.0.se.conv_reduce.weight">
					<dim>24</dim>
					<dim>72</dim>
					<dim>1</dim>
					<dim>1</dim>
				</port>
			</output>
		</layer>
		<layer id="162" name="/model.0/model/blocks.3/blocks.3.0/se/conv_reduce/Conv/WithoutBiases" type="Convolution" version="opset1">
			<data strides="1, 1" dilations="1, 1" pads_begin="0, 0" pads_end="0, 0" auto_pad="explicit" />
			<input>
				<port id="0" precision="FP32">
					<dim>1</dim>
					<dim>72</dim>
					<dim>1</dim>
					<dim>1</dim>
				</port>
				<port id="1" precision="FP32">
					<dim>24</dim>
					<dim>72</dim>
					<dim>1</dim>
					<dim>1</dim>
				</port>
			</input>
			<output>
				<port id="2" precision="FP32">
					<dim>1</dim>
					<dim>24</dim>
					<dim>1</dim>
					<dim>1</dim>
				</port>
			</output>
		</layer>
		<layer id="163" name="Reshape_926" type="Const" version="opset1">
			<data element_type="f32" shape="1, 24, 1, 1" offset="249080" size="96" />
			<output>
				<port id="0" precision="FP32">
					<dim>1</dim>
					<dim>24</dim>
					<dim>1</dim>
					<dim>1</dim>
				</port>
			</output>
		</layer>
		<layer id="164" name="/model.0/model/blocks.3/blocks.3.0/se/conv_reduce/Conv" type="Add" version="opset1">
			<data auto_broadcast="numpy" />
			<input>
				<port id="0" precision="FP32">
					<dim>1</dim>
					<dim>24</dim>
					<dim>1</dim>
					<dim>1</dim>
				</port>
				<port id="1" precision="FP32">
					<dim>1</dim>
					<dim>24</dim>
					<dim>1</dim>
					<dim>1</dim>
				</port>
			</input>
			<output>
				<port id="2" precision="FP32" names="/model.0/model/blocks.3/blocks.3.0/se/conv_reduce/Conv_output_0">
					<dim>1</dim>
					<dim>24</dim>
					<dim>1</dim>
					<dim>1</dim>
				</port>
			</output>
		</layer>
		<layer id="165" name="/model.0/model/blocks.3/blocks.3.0/se/act1/Relu" type="ReLU" version="opset1">
			<input>
				<port id="0" precision="FP32">
					<dim>1</dim>
					<dim>24</dim>
					<dim>1</dim>
					<dim>1</dim>
				</port>
			</input>
			<output>
				<port id="1" precision="FP32" names="/model.0/model/blocks.3/blocks.3.0/se/act1/Relu_output_0">
					<dim>1</dim>
					<dim>24</dim>
					<dim>1</dim>
					<dim>1</dim>
				</port>
			</output>
		</layer>
		<layer id="166" name="model.0.model.blocks.3.0.se.conv_expand.weight" type="Const" version="opset1">
			<data element_type="f32" shape="72, 24, 1, 1" offset="249176" size="6912" />
			<output>
				<port id="0" precision="FP32" names="model.0.model.blocks.3.0.se.conv_expand.weight">
					<dim>72</dim>
					<dim>24</dim>
					<dim>1</dim>
					<dim>1</dim>
				</port>
			</output>
		</layer>
		<layer id="167" name="/model.0/model/blocks.3/blocks.3.0/se/conv_expand/Conv/WithoutBiases" type="Convolution" version="opset1">
			<data strides="1, 1" dilations="1, 1" pads_begin="0, 0" pads_end="0, 0" auto_pad="explicit" />
			<input>
				<port id="0" precision="FP32">
					<dim>1</dim>
					<dim>24</dim>
					<dim>1</dim>
					<dim>1</dim>
				</port>
				<port id="1" precision="FP32">
					<dim>72</dim>
					<dim>24</dim>
					<dim>1</dim>
					<dim>1</dim>
				</port>
			</input>
			<output>
				<port id="2" precision="FP32">
					<dim>1</dim>
					<dim>72</dim>
					<dim>1</dim>
					<dim>1</dim>
				</port>
			</output>
		</layer>
		<layer id="168" name="Reshape_940" type="Const" version="opset1">
			<data element_type="f32" shape="1, 72, 1, 1" offset="256088" size="288" />
			<output>
				<port id="0" precision="FP32">
					<dim>1</dim>
					<dim>72</dim>
					<dim>1</dim>
					<dim>1</dim>
				</port>
			</output>
		</layer>
		<layer id="169" name="/model.0/model/blocks.3/blocks.3.0/se/conv_expand/Conv" type="Add" version="opset1">
			<data auto_broadcast="numpy" />
			<input>
				<port id="0" precision="FP32">
					<dim>1</dim>
					<dim>72</dim>
					<dim>1</dim>
					<dim>1</dim>
				</port>
				<port id="1" precision="FP32">
					<dim>1</dim>
					<dim>72</dim>
					<dim>1</dim>
					<dim>1</dim>
				</port>
			</input>
			<output>
				<port id="2" precision="FP32" names="/model.0/model/blocks.3/blocks.3.0/se/conv_expand/Conv_output_0">
					<dim>1</dim>
					<dim>72</dim>
					<dim>1</dim>
					<dim>1</dim>
				</port>
			</output>
		</layer>
		<layer id="170" name="Constant_942" type="Const" version="opset1">
			<data element_type="f32" shape="" offset="5584" size="4" />
			<output>
				<port id="0" precision="FP32" />
			</output>
		</layer>
		<layer id="171" name="Constant_943" type="Const" version="opset1">
			<data element_type="f32" shape="" offset="5588" size="4" />
			<output>
				<port id="0" precision="FP32" />
			</output>
		</layer>
		<layer id="172" name="/model.0/model/blocks.3/blocks.3.0/se/gate/HardSigmoid" type="HardSigmoid" version="opset1">
			<input>
				<port id="0" precision="FP32">
					<dim>1</dim>
					<dim>72</dim>
					<dim>1</dim>
					<dim>1</dim>
				</port>
				<port id="1" precision="FP32" />
				<port id="2" precision="FP32" />
			</input>
			<output>
				<port id="3" precision="FP32" names="/model.0/model/blocks.3/blocks.3.0/se/gate/HardSigmoid_output_0">
					<dim>1</dim>
					<dim>72</dim>
					<dim>1</dim>
					<dim>1</dim>
				</port>
			</output>
		</layer>
		<layer id="173" name="/model.0/model/blocks.3/blocks.3.0/se/Mul" type="Multiply" version="opset1">
			<data auto_broadcast="numpy" />
			<input>
				<port id="0" precision="FP32">
					<dim>1</dim>
					<dim>72</dim>
					<dim>6</dim>
					<dim>8</dim>
				</port>
				<port id="1" precision="FP32">
					<dim>1</dim>
					<dim>72</dim>
					<dim>1</dim>
					<dim>1</dim>
				</port>
			</input>
			<output>
				<port id="2" precision="FP32" names="/model.0/model/blocks.3/blocks.3.0/se/Mul_output_0">
					<dim>1</dim>
					<dim>72</dim>
					<dim>6</dim>
					<dim>8</dim>
				</port>
			</output>
		</layer>
		<layer id="174" name="onnx::Conv_752" type="Const" version="opset1">
			<data element_type="f32" shape="24, 72, 1, 1" offset="256376" size="6912" />
			<output>
				<port id="0" precision="FP32" names="onnx::Conv_752">
					<dim>24</dim>
					<dim>72</dim>
					<dim>1</dim>
					<dim>1</dim>
				</port>
			</output>
		</layer>
		<layer id="175" name="/model.0/model/blocks.3/blocks.3.0/conv_pwl/Conv/WithoutBiases" type="Convolution" version="opset1">
			<data strides="1, 1" dilations="1, 1" pads_begin="0, 0" pads_end="0, 0" auto_pad="explicit" />
			<input>
				<port id="0" precision="FP32">
					<dim>1</dim>
					<dim>72</dim>
					<dim>6</dim>
					<dim>8</dim>
				</port>
				<port id="1" precision="FP32">
					<dim>24</dim>
					<dim>72</dim>
					<dim>1</dim>
					<dim>1</dim>
				</port>
			</input>
			<output>
				<port id="2" precision="FP32">
					<dim>1</dim>
					<dim>24</dim>
					<dim>6</dim>
					<dim>8</dim>
				</port>
			</output>
		</layer>
		<layer id="176" name="Reshape_957" type="Const" version="opset1">
			<data element_type="f32" shape="1, 24, 1, 1" offset="263288" size="96" />
			<output>
				<port id="0" precision="FP32">
					<dim>1</dim>
					<dim>24</dim>
					<dim>1</dim>
					<dim>1</dim>
				</port>
			</output>
		</layer>
		<layer id="177" name="/model.0/model/blocks.3/blocks.3.0/conv_pwl/Conv" type="Add" version="opset1">
			<data auto_broadcast="numpy" />
			<input>
				<port id="0" precision="FP32">
					<dim>1</dim>
					<dim>24</dim>
					<dim>6</dim>
					<dim>8</dim>
				</port>
				<port id="1" precision="FP32">
					<dim>1</dim>
					<dim>24</dim>
					<dim>1</dim>
					<dim>1</dim>
				</port>
			</input>
			<output>
				<port id="2" precision="FP32" names="/model.0/model/blocks.3/blocks.3.0/conv_pwl/Conv_output_0">
					<dim>1</dim>
					<dim>24</dim>
					<dim>6</dim>
					<dim>8</dim>
				</port>
			</output>
		</layer>
		<layer id="178" name="/model.0/model/blocks.3/blocks.3.0/Add" type="Add" version="opset1">
			<data auto_broadcast="numpy" />
			<input>
				<port id="0" precision="FP32">
					<dim>1</dim>
					<dim>24</dim>
					<dim>6</dim>
					<dim>8</dim>
				</port>
				<port id="1" precision="FP32">
					<dim>1</dim>
					<dim>24</dim>
					<dim>6</dim>
					<dim>8</dim>
				</port>
			</input>
			<output>
				<port id="2" precision="FP32" names="/model.0/model/blocks.3/blocks.3.0/Add_output_0">
					<dim>1</dim>
					<dim>24</dim>
					<dim>6</dim>
					<dim>8</dim>
				</port>
			</output>
		</layer>
		<layer id="179" name="onnx::Conv_755" type="Const" version="opset1">
			<data element_type="f32" shape="72, 24, 1, 1" offset="263384" size="6912" />
			<output>
				<port id="0" precision="FP32" names="onnx::Conv_755">
					<dim>72</dim>
					<dim>24</dim>
					<dim>1</dim>
					<dim>1</dim>
				</port>
			</output>
		</layer>
		<layer id="180" name="/model.0/model/blocks.3/blocks.3.1/conv_pw/Conv/WithoutBiases" type="Convolution" version="opset1">
			<data strides="1, 1" dilations="1, 1" pads_begin="0, 0" pads_end="0, 0" auto_pad="explicit" />
			<input>
				<port id="0" precision="FP32">
					<dim>1</dim>
					<dim>24</dim>
					<dim>6</dim>
					<dim>8</dim>
				</port>
				<port id="1" precision="FP32">
					<dim>72</dim>
					<dim>24</dim>
					<dim>1</dim>
					<dim>1</dim>
				</port>
			</input>
			<output>
				<port id="2" precision="FP32">
					<dim>1</dim>
					<dim>72</dim>
					<dim>6</dim>
					<dim>8</dim>
				</port>
			</output>
		</layer>
		<layer id="181" name="Reshape_971" type="Const" version="opset1">
			<data element_type="f32" shape="1, 72, 1, 1" offset="270296" size="288" />
			<output>
				<port id="0" precision="FP32">
					<dim>1</dim>
					<dim>72</dim>
					<dim>1</dim>
					<dim>1</dim>
				</port>
			</output>
		</layer>
		<layer id="182" name="/model.0/model/blocks.3/blocks.3.1/conv_pw/Conv" type="Add" version="opset1">
			<data auto_broadcast="numpy" />
			<input>
				<port id="0" precision="FP32">
					<dim>1</dim>
					<dim>72</dim>
					<dim>6</dim>
					<dim>8</dim>
				</port>
				<port id="1" precision="FP32">
					<dim>1</dim>
					<dim>72</dim>
					<dim>1</dim>
					<dim>1</dim>
				</port>
			</input>
			<output>
				<port id="2" precision="FP32" names="/model.0/model/blocks.3/blocks.3.1/conv_pw/Conv_output_0">
					<dim>1</dim>
					<dim>72</dim>
					<dim>6</dim>
					<dim>8</dim>
				</port>
			</output>
		</layer>
		<layer id="183" name="/model.0/model/blocks.3/blocks.3.1/bn1/act/HardSwish" type="HSwish" version="opset4">
			<input>
				<port id="0" precision="FP32">
					<dim>1</dim>
					<dim>72</dim>
					<dim>6</dim>
					<dim>8</dim>
				</port>
			</input>
			<output>
				<port id="1" precision="FP32" names="/model.0/model/blocks.3/blocks.3.1/bn1/act/HardSwish_output_0">
					<dim>1</dim>
					<dim>72</dim>
					<dim>6</dim>
					<dim>8</dim>
				</port>
			</output>
		</layer>
		<layer id="184" name="Reshape_981" type="Const" version="opset1">
			<data element_type="f32" shape="72, 1, 1, 5, 5" offset="270584" size="7200" />
			<output>
				<port id="0" precision="FP32">
					<dim>72</dim>
					<dim>1</dim>
					<dim>1</dim>
					<dim>5</dim>
					<dim>5</dim>
				</port>
			</output>
		</layer>
		<layer id="185" name="/model.0/model/blocks.3/blocks.3.1/conv_dw/Conv/WithoutBiases" type="GroupConvolution" version="opset1">
			<data strides="1, 1" pads_begin="2, 2" pads_end="2, 2" dilations="1, 1" auto_pad="explicit" />
			<input>
				<port id="0" precision="FP32">
					<dim>1</dim>
					<dim>72</dim>
					<dim>6</dim>
					<dim>8</dim>
				</port>
				<port id="1" precision="FP32">
					<dim>72</dim>
					<dim>1</dim>
					<dim>1</dim>
					<dim>5</dim>
					<dim>5</dim>
				</port>
			</input>
			<output>
				<port id="2" precision="FP32">
					<dim>1</dim>
					<dim>72</dim>
					<dim>6</dim>
					<dim>8</dim>
				</port>
			</output>
		</layer>
		<layer id="186" name="Reshape_1031" type="Const" version="opset1">
			<data element_type="f32" shape="1, 72, 1, 1" offset="277784" size="288" />
			<output>
				<port id="0" precision="FP32">
					<dim>1</dim>
					<dim>72</dim>
					<dim>1</dim>
					<dim>1</dim>
				</port>
			</output>
		</layer>
		<layer id="187" name="/model.0/model/blocks.3/blocks.3.1/conv_dw/Conv" type="Add" version="opset1">
			<data auto_broadcast="numpy" />
			<input>
				<port id="0" precision="FP32">
					<dim>1</dim>
					<dim>72</dim>
					<dim>6</dim>
					<dim>8</dim>
				</port>
				<port id="1" precision="FP32">
					<dim>1</dim>
					<dim>72</dim>
					<dim>1</dim>
					<dim>1</dim>
				</port>
			</input>
			<output>
				<port id="2" precision="FP32" names="/model.0/model/blocks.3/blocks.3.1/conv_dw/Conv_output_0">
					<dim>1</dim>
					<dim>72</dim>
					<dim>6</dim>
					<dim>8</dim>
				</port>
			</output>
		</layer>
		<layer id="188" name="/model.0/model/blocks.3/blocks.3.1/bn2/act/HardSwish" type="HSwish" version="opset4">
			<input>
				<port id="0" precision="FP32">
					<dim>1</dim>
					<dim>72</dim>
					<dim>6</dim>
					<dim>8</dim>
				</port>
			</input>
			<output>
				<port id="1" precision="FP32" names="/model.0/model/blocks.3/blocks.3.1/bn2/act/HardSwish_output_0">
					<dim>1</dim>
					<dim>72</dim>
					<dim>6</dim>
					<dim>8</dim>
				</port>
			</output>
		</layer>
		<layer id="189" name="Constant_1034" type="Const" version="opset1">
			<data element_type="i64" shape="2" offset="4448" size="16" />
			<output>
				<port id="0" precision="I64">
					<dim>2</dim>
				</port>
			</output>
		</layer>
		<layer id="190" name="/model.0/model/blocks.3/blocks.3.1/se/ReduceMean" type="ReduceMean" version="opset1">
			<data keep_dims="true" />
			<input>
				<port id="0" precision="FP32">
					<dim>1</dim>
					<dim>72</dim>
					<dim>6</dim>
					<dim>8</dim>
				</port>
				<port id="1" precision="I64">
					<dim>2</dim>
				</port>
			</input>
			<output>
				<port id="2" precision="FP32" names="/model.0/model/blocks.3/blocks.3.1/se/ReduceMean_output_0">
					<dim>1</dim>
					<dim>72</dim>
					<dim>1</dim>
					<dim>1</dim>
				</port>
			</output>
		</layer>
		<layer id="191" name="model.0.model.blocks.3.1.se.conv_reduce.weight" type="Const" version="opset1">
			<data element_type="f32" shape="24, 72, 1, 1" offset="278072" size="6912" />
			<output>
				<port id="0" precision="FP32" names="model.0.model.blocks.3.1.se.conv_reduce.weight">
					<dim>24</dim>
					<dim>72</dim>
					<dim>1</dim>
					<dim>1</dim>
				</port>
			</output>
		</layer>
		<layer id="192" name="/model.0/model/blocks.3/blocks.3.1/se/conv_reduce/Conv/WithoutBiases" type="Convolution" version="opset1">
			<data strides="1, 1" dilations="1, 1" pads_begin="0, 0" pads_end="0, 0" auto_pad="explicit" />
			<input>
				<port id="0" precision="FP32">
					<dim>1</dim>
					<dim>72</dim>
					<dim>1</dim>
					<dim>1</dim>
				</port>
				<port id="1" precision="FP32">
					<dim>24</dim>
					<dim>72</dim>
					<dim>1</dim>
					<dim>1</dim>
				</port>
			</input>
			<output>
				<port id="2" precision="FP32">
					<dim>1</dim>
					<dim>24</dim>
					<dim>1</dim>
					<dim>1</dim>
				</port>
			</output>
		</layer>
		<layer id="193" name="Reshape_1047" type="Const" version="opset1">
			<data element_type="f32" shape="1, 24, 1, 1" offset="284984" size="96" />
			<output>
				<port id="0" precision="FP32">
					<dim>1</dim>
					<dim>24</dim>
					<dim>1</dim>
					<dim>1</dim>
				</port>
			</output>
		</layer>
		<layer id="194" name="/model.0/model/blocks.3/blocks.3.1/se/conv_reduce/Conv" type="Add" version="opset1">
			<data auto_broadcast="numpy" />
			<input>
				<port id="0" precision="FP32">
					<dim>1</dim>
					<dim>24</dim>
					<dim>1</dim>
					<dim>1</dim>
				</port>
				<port id="1" precision="FP32">
					<dim>1</dim>
					<dim>24</dim>
					<dim>1</dim>
					<dim>1</dim>
				</port>
			</input>
			<output>
				<port id="2" precision="FP32" names="/model.0/model/blocks.3/blocks.3.1/se/conv_reduce/Conv_output_0">
					<dim>1</dim>
					<dim>24</dim>
					<dim>1</dim>
					<dim>1</dim>
				</port>
			</output>
		</layer>
		<layer id="195" name="/model.0/model/blocks.3/blocks.3.1/se/act1/Relu" type="ReLU" version="opset1">
			<input>
				<port id="0" precision="FP32">
					<dim>1</dim>
					<dim>24</dim>
					<dim>1</dim>
					<dim>1</dim>
				</port>
			</input>
			<output>
				<port id="1" precision="FP32" names="/model.0/model/blocks.3/blocks.3.1/se/act1/Relu_output_0">
					<dim>1</dim>
					<dim>24</dim>
					<dim>1</dim>
					<dim>1</dim>
				</port>
			</output>
		</layer>
		<layer id="196" name="model.0.model.blocks.3.1.se.conv_expand.weight" type="Const" version="opset1">
			<data element_type="f32" shape="72, 24, 1, 1" offset="285080" size="6912" />
			<output>
				<port id="0" precision="FP32" names="model.0.model.blocks.3.1.se.conv_expand.weight">
					<dim>72</dim>
					<dim>24</dim>
					<dim>1</dim>
					<dim>1</dim>
				</port>
			</output>
		</layer>
		<layer id="197" name="/model.0/model/blocks.3/blocks.3.1/se/conv_expand/Conv/WithoutBiases" type="Convolution" version="opset1">
			<data strides="1, 1" dilations="1, 1" pads_begin="0, 0" pads_end="0, 0" auto_pad="explicit" />
			<input>
				<port id="0" precision="FP32">
					<dim>1</dim>
					<dim>24</dim>
					<dim>1</dim>
					<dim>1</dim>
				</port>
				<port id="1" precision="FP32">
					<dim>72</dim>
					<dim>24</dim>
					<dim>1</dim>
					<dim>1</dim>
				</port>
			</input>
			<output>
				<port id="2" precision="FP32">
					<dim>1</dim>
					<dim>72</dim>
					<dim>1</dim>
					<dim>1</dim>
				</port>
			</output>
		</layer>
		<layer id="198" name="Reshape_1061" type="Const" version="opset1">
			<data element_type="f32" shape="1, 72, 1, 1" offset="291992" size="288" />
			<output>
				<port id="0" precision="FP32">
					<dim>1</dim>
					<dim>72</dim>
					<dim>1</dim>
					<dim>1</dim>
				</port>
			</output>
		</layer>
		<layer id="199" name="/model.0/model/blocks.3/blocks.3.1/se/conv_expand/Conv" type="Add" version="opset1">
			<data auto_broadcast="numpy" />
			<input>
				<port id="0" precision="FP32">
					<dim>1</dim>
					<dim>72</dim>
					<dim>1</dim>
					<dim>1</dim>
				</port>
				<port id="1" precision="FP32">
					<dim>1</dim>
					<dim>72</dim>
					<dim>1</dim>
					<dim>1</dim>
				</port>
			</input>
			<output>
				<port id="2" precision="FP32" names="/model.0/model/blocks.3/blocks.3.1/se/conv_expand/Conv_output_0">
					<dim>1</dim>
					<dim>72</dim>
					<dim>1</dim>
					<dim>1</dim>
				</port>
			</output>
		</layer>
		<layer id="200" name="Constant_1063" type="Const" version="opset1">
			<data element_type="f32" shape="" offset="5584" size="4" />
			<output>
				<port id="0" precision="FP32" />
			</output>
		</layer>
		<layer id="201" name="Constant_1064" type="Const" version="opset1">
			<data element_type="f32" shape="" offset="5588" size="4" />
			<output>
				<port id="0" precision="FP32" />
			</output>
		</layer>
		<layer id="202" name="/model.0/model/blocks.3/blocks.3.1/se/gate/HardSigmoid" type="HardSigmoid" version="opset1">
			<input>
				<port id="0" precision="FP32">
					<dim>1</dim>
					<dim>72</dim>
					<dim>1</dim>
					<dim>1</dim>
				</port>
				<port id="1" precision="FP32" />
				<port id="2" precision="FP32" />
			</input>
			<output>
				<port id="3" precision="FP32" names="/model.0/model/blocks.3/blocks.3.1/se/gate/HardSigmoid_output_0">
					<dim>1</dim>
					<dim>72</dim>
					<dim>1</dim>
					<dim>1</dim>
				</port>
			</output>
		</layer>
		<layer id="203" name="/model.0/model/blocks.3/blocks.3.1/se/Mul" type="Multiply" version="opset1">
			<data auto_broadcast="numpy" />
			<input>
				<port id="0" precision="FP32">
					<dim>1</dim>
					<dim>72</dim>
					<dim>6</dim>
					<dim>8</dim>
				</port>
				<port id="1" precision="FP32">
					<dim>1</dim>
					<dim>72</dim>
					<dim>1</dim>
					<dim>1</dim>
				</port>
			</input>
			<output>
				<port id="2" precision="FP32" names="/model.0/model/blocks.3/blocks.3.1/se/Mul_output_0">
					<dim>1</dim>
					<dim>72</dim>
					<dim>6</dim>
					<dim>8</dim>
				</port>
			</output>
		</layer>
		<layer id="204" name="onnx::Conv_761" type="Const" version="opset1">
			<data element_type="f32" shape="24, 72, 1, 1" offset="292280" size="6912" />
			<output>
				<port id="0" precision="FP32" names="onnx::Conv_761">
					<dim>24</dim>
					<dim>72</dim>
					<dim>1</dim>
					<dim>1</dim>
				</port>
			</output>
		</layer>
		<layer id="205" name="/model.0/model/blocks.3/blocks.3.1/conv_pwl/Conv/WithoutBiases" type="Convolution" version="opset1">
			<data strides="1, 1" dilations="1, 1" pads_begin="0, 0" pads_end="0, 0" auto_pad="explicit" />
			<input>
				<port id="0" precision="FP32">
					<dim>1</dim>
					<dim>72</dim>
					<dim>6</dim>
					<dim>8</dim>
				</port>
				<port id="1" precision="FP32">
					<dim>24</dim>
					<dim>72</dim>
					<dim>1</dim>
					<dim>1</dim>
				</port>
			</input>
			<output>
				<port id="2" precision="FP32">
					<dim>1</dim>
					<dim>24</dim>
					<dim>6</dim>
					<dim>8</dim>
				</port>
			</output>
		</layer>
		<layer id="206" name="Reshape_1078" type="Const" version="opset1">
			<data element_type="f32" shape="1, 24, 1, 1" offset="299192" size="96" />
			<output>
				<port id="0" precision="FP32">
					<dim>1</dim>
					<dim>24</dim>
					<dim>1</dim>
					<dim>1</dim>
				</port>
			</output>
		</layer>
		<layer id="207" name="/model.0/model/blocks.3/blocks.3.1/conv_pwl/Conv" type="Add" version="opset1">
			<data auto_broadcast="numpy" />
			<input>
				<port id="0" precision="FP32">
					<dim>1</dim>
					<dim>24</dim>
					<dim>6</dim>
					<dim>8</dim>
				</port>
				<port id="1" precision="FP32">
					<dim>1</dim>
					<dim>24</dim>
					<dim>1</dim>
					<dim>1</dim>
				</port>
			</input>
			<output>
				<port id="2" precision="FP32" names="/model.0/model/blocks.3/blocks.3.1/conv_pwl/Conv_output_0">
					<dim>1</dim>
					<dim>24</dim>
					<dim>6</dim>
					<dim>8</dim>
				</port>
			</output>
		</layer>
		<layer id="208" name="/model.0/model/blocks.3/blocks.3.1/Add" type="Add" version="opset1">
			<data auto_broadcast="numpy" />
			<input>
				<port id="0" precision="FP32">
					<dim>1</dim>
					<dim>24</dim>
					<dim>6</dim>
					<dim>8</dim>
				</port>
				<port id="1" precision="FP32">
					<dim>1</dim>
					<dim>24</dim>
					<dim>6</dim>
					<dim>8</dim>
				</port>
			</input>
			<output>
				<port id="2" precision="FP32" names="/model.0/model/blocks.3/blocks.3.1/Add_output_0">
					<dim>1</dim>
					<dim>24</dim>
					<dim>6</dim>
					<dim>8</dim>
				</port>
			</output>
		</layer>
		<layer id="209" name="onnx::Conv_764" type="Const" version="opset1">
			<data element_type="f32" shape="144, 24, 1, 1" offset="299288" size="13824" />
			<output>
				<port id="0" precision="FP32" names="onnx::Conv_764">
					<dim>144</dim>
					<dim>24</dim>
					<dim>1</dim>
					<dim>1</dim>
				</port>
			</output>
		</layer>
		<layer id="210" name="/model.0/model/blocks.4/blocks.4.0/conv_pw/Conv/WithoutBiases" type="Convolution" version="opset1">
			<data strides="1, 1" dilations="1, 1" pads_begin="0, 0" pads_end="0, 0" auto_pad="explicit" />
			<input>
				<port id="0" precision="FP32">
					<dim>1</dim>
					<dim>24</dim>
					<dim>6</dim>
					<dim>8</dim>
				</port>
				<port id="1" precision="FP32">
					<dim>144</dim>
					<dim>24</dim>
					<dim>1</dim>
					<dim>1</dim>
				</port>
			</input>
			<output>
				<port id="2" precision="FP32">
					<dim>1</dim>
					<dim>144</dim>
					<dim>6</dim>
					<dim>8</dim>
				</port>
			</output>
		</layer>
		<layer id="211" name="Reshape_1092" type="Const" version="opset1">
			<data element_type="f32" shape="1, 144, 1, 1" offset="313112" size="576" />
			<output>
				<port id="0" precision="FP32">
					<dim>1</dim>
					<dim>144</dim>
					<dim>1</dim>
					<dim>1</dim>
				</port>
			</output>
		</layer>
		<layer id="212" name="/model.0/model/blocks.4/blocks.4.0/conv_pw/Conv" type="Add" version="opset1">
			<data auto_broadcast="numpy" />
			<input>
				<port id="0" precision="FP32">
					<dim>1</dim>
					<dim>144</dim>
					<dim>6</dim>
					<dim>8</dim>
				</port>
				<port id="1" precision="FP32">
					<dim>1</dim>
					<dim>144</dim>
					<dim>1</dim>
					<dim>1</dim>
				</port>
			</input>
			<output>
				<port id="2" precision="FP32" names="/model.0/model/blocks.4/blocks.4.0/conv_pw/Conv_output_0">
					<dim>1</dim>
					<dim>144</dim>
					<dim>6</dim>
					<dim>8</dim>
				</port>
			</output>
		</layer>
		<layer id="213" name="/model.0/model/blocks.4/blocks.4.0/bn1/act/HardSwish" type="HSwish" version="opset4">
			<input>
				<port id="0" precision="FP32">
					<dim>1</dim>
					<dim>144</dim>
					<dim>6</dim>
					<dim>8</dim>
				</port>
			</input>
			<output>
				<port id="1" precision="FP32" names="/model.0/model/blocks.4/blocks.4.0/bn1/act/HardSwish_output_0">
					<dim>1</dim>
					<dim>144</dim>
					<dim>6</dim>
					<dim>8</dim>
				</port>
			</output>
		</layer>
		<layer id="214" name="Reshape_1102" type="Const" version="opset1">
			<data element_type="f32" shape="144, 1, 1, 5, 5" offset="313688" size="14400" />
			<output>
				<port id="0" precision="FP32">
					<dim>144</dim>
					<dim>1</dim>
					<dim>1</dim>
					<dim>5</dim>
					<dim>5</dim>
				</port>
			</output>
		</layer>
		<layer id="215" name="/model.0/model/blocks.4/blocks.4.0/conv_dw/Conv/WithoutBiases" type="GroupConvolution" version="opset1">
			<data strides="2, 2" pads_begin="2, 2" pads_end="2, 2" dilations="1, 1" auto_pad="explicit" />
			<input>
				<port id="0" precision="FP32">
					<dim>1</dim>
					<dim>144</dim>
					<dim>6</dim>
					<dim>8</dim>
				</port>
				<port id="1" precision="FP32">
					<dim>144</dim>
					<dim>1</dim>
					<dim>1</dim>
					<dim>5</dim>
					<dim>5</dim>
				</port>
			</input>
			<output>
				<port id="2" precision="FP32">
					<dim>1</dim>
					<dim>144</dim>
					<dim>3</dim>
					<dim>4</dim>
				</port>
			</output>
		</layer>
		<layer id="216" name="Reshape_1152" type="Const" version="opset1">
			<data element_type="f32" shape="1, 144, 1, 1" offset="328088" size="576" />
			<output>
				<port id="0" precision="FP32">
					<dim>1</dim>
					<dim>144</dim>
					<dim>1</dim>
					<dim>1</dim>
				</port>
			</output>
		</layer>
		<layer id="217" name="/model.0/model/blocks.4/blocks.4.0/conv_dw/Conv" type="Add" version="opset1">
			<data auto_broadcast="numpy" />
			<input>
				<port id="0" precision="FP32">
					<dim>1</dim>
					<dim>144</dim>
					<dim>3</dim>
					<dim>4</dim>
				</port>
				<port id="1" precision="FP32">
					<dim>1</dim>
					<dim>144</dim>
					<dim>1</dim>
					<dim>1</dim>
				</port>
			</input>
			<output>
				<port id="2" precision="FP32" names="/model.0/model/blocks.4/blocks.4.0/conv_dw/Conv_output_0">
					<dim>1</dim>
					<dim>144</dim>
					<dim>3</dim>
					<dim>4</dim>
				</port>
			</output>
		</layer>
		<layer id="218" name="/model.0/model/blocks.4/blocks.4.0/bn2/act/HardSwish" type="HSwish" version="opset4">
			<input>
				<port id="0" precision="FP32">
					<dim>1</dim>
					<dim>144</dim>
					<dim>3</dim>
					<dim>4</dim>
				</port>
			</input>
			<output>
				<port id="1" precision="FP32" names="/model.0/model/blocks.4/blocks.4.0/bn2/act/HardSwish_output_0">
					<dim>1</dim>
					<dim>144</dim>
					<dim>3</dim>
					<dim>4</dim>
				</port>
			</output>
		</layer>
		<layer id="219" name="Constant_1155" type="Const" version="opset1">
			<data element_type="i64" shape="2" offset="4448" size="16" />
			<output>
				<port id="0" precision="I64">
					<dim>2</dim>
				</port>
			</output>
		</layer>
		<layer id="220" name="/model.0/model/blocks.4/blocks.4.0/se/ReduceMean" type="ReduceMean" version="opset1">
			<data keep_dims="true" />
			<input>
				<port id="0" precision="FP32">
					<dim>1</dim>
					<dim>144</dim>
					<dim>3</dim>
					<dim>4</dim>
				</port>
				<port id="1" precision="I64">
					<dim>2</dim>
				</port>
			</input>
			<output>
				<port id="2" precision="FP32" names="/model.0/model/blocks.4/blocks.4.0/se/ReduceMean_output_0">
					<dim>1</dim>
					<dim>144</dim>
					<dim>1</dim>
					<dim>1</dim>
				</port>
			</output>
		</layer>
		<layer id="221" name="model.0.model.blocks.4.0.se.conv_reduce.weight" type="Const" version="opset1">
			<data element_type="f32" shape="40, 144, 1, 1" offset="328664" size="23040" />
			<output>
				<port id="0" precision="FP32" names="model.0.model.blocks.4.0.se.conv_reduce.weight">
					<dim>40</dim>
					<dim>144</dim>
					<dim>1</dim>
					<dim>1</dim>
				</port>
			</output>
		</layer>
		<layer id="222" name="/model.0/model/blocks.4/blocks.4.0/se/conv_reduce/Conv/WithoutBiases" type="Convolution" version="opset1">
			<data strides="1, 1" dilations="1, 1" pads_begin="0, 0" pads_end="0, 0" auto_pad="explicit" />
			<input>
				<port id="0" precision="FP32">
					<dim>1</dim>
					<dim>144</dim>
					<dim>1</dim>
					<dim>1</dim>
				</port>
				<port id="1" precision="FP32">
					<dim>40</dim>
					<dim>144</dim>
					<dim>1</dim>
					<dim>1</dim>
				</port>
			</input>
			<output>
				<port id="2" precision="FP32">
					<dim>1</dim>
					<dim>40</dim>
					<dim>1</dim>
					<dim>1</dim>
				</port>
			</output>
		</layer>
		<layer id="223" name="Reshape_1168" type="Const" version="opset1">
			<data element_type="f32" shape="1, 40, 1, 1" offset="351704" size="160" />
			<output>
				<port id="0" precision="FP32">
					<dim>1</dim>
					<dim>40</dim>
					<dim>1</dim>
					<dim>1</dim>
				</port>
			</output>
		</layer>
		<layer id="224" name="/model.0/model/blocks.4/blocks.4.0/se/conv_reduce/Conv" type="Add" version="opset1">
			<data auto_broadcast="numpy" />
			<input>
				<port id="0" precision="FP32">
					<dim>1</dim>
					<dim>40</dim>
					<dim>1</dim>
					<dim>1</dim>
				</port>
				<port id="1" precision="FP32">
					<dim>1</dim>
					<dim>40</dim>
					<dim>1</dim>
					<dim>1</dim>
				</port>
			</input>
			<output>
				<port id="2" precision="FP32" names="/model.0/model/blocks.4/blocks.4.0/se/conv_reduce/Conv_output_0">
					<dim>1</dim>
					<dim>40</dim>
					<dim>1</dim>
					<dim>1</dim>
				</port>
			</output>
		</layer>
		<layer id="225" name="/model.0/model/blocks.4/blocks.4.0/se/act1/Relu" type="ReLU" version="opset1">
			<input>
				<port id="0" precision="FP32">
					<dim>1</dim>
					<dim>40</dim>
					<dim>1</dim>
					<dim>1</dim>
				</port>
			</input>
			<output>
				<port id="1" precision="FP32" names="/model.0/model/blocks.4/blocks.4.0/se/act1/Relu_output_0">
					<dim>1</dim>
					<dim>40</dim>
					<dim>1</dim>
					<dim>1</dim>
				</port>
			</output>
		</layer>
		<layer id="226" name="model.0.model.blocks.4.0.se.conv_expand.weight" type="Const" version="opset1">
			<data element_type="f32" shape="144, 40, 1, 1" offset="351864" size="23040" />
			<output>
				<port id="0" precision="FP32" names="model.0.model.blocks.4.0.se.conv_expand.weight">
					<dim>144</dim>
					<dim>40</dim>
					<dim>1</dim>
					<dim>1</dim>
				</port>
			</output>
		</layer>
		<layer id="227" name="/model.0/model/blocks.4/blocks.4.0/se/conv_expand/Conv/WithoutBiases" type="Convolution" version="opset1">
			<data strides="1, 1" dilations="1, 1" pads_begin="0, 0" pads_end="0, 0" auto_pad="explicit" />
			<input>
				<port id="0" precision="FP32">
					<dim>1</dim>
					<dim>40</dim>
					<dim>1</dim>
					<dim>1</dim>
				</port>
				<port id="1" precision="FP32">
					<dim>144</dim>
					<dim>40</dim>
					<dim>1</dim>
					<dim>1</dim>
				</port>
			</input>
			<output>
				<port id="2" precision="FP32">
					<dim>1</dim>
					<dim>144</dim>
					<dim>1</dim>
					<dim>1</dim>
				</port>
			</output>
		</layer>
		<layer id="228" name="Reshape_1182" type="Const" version="opset1">
			<data element_type="f32" shape="1, 144, 1, 1" offset="374904" size="576" />
			<output>
				<port id="0" precision="FP32">
					<dim>1</dim>
					<dim>144</dim>
					<dim>1</dim>
					<dim>1</dim>
				</port>
			</output>
		</layer>
		<layer id="229" name="/model.0/model/blocks.4/blocks.4.0/se/conv_expand/Conv" type="Add" version="opset1">
			<data auto_broadcast="numpy" />
			<input>
				<port id="0" precision="FP32">
					<dim>1</dim>
					<dim>144</dim>
					<dim>1</dim>
					<dim>1</dim>
				</port>
				<port id="1" precision="FP32">
					<dim>1</dim>
					<dim>144</dim>
					<dim>1</dim>
					<dim>1</dim>
				</port>
			</input>
			<output>
				<port id="2" precision="FP32" names="/model.0/model/blocks.4/blocks.4.0/se/conv_expand/Conv_output_0">
					<dim>1</dim>
					<dim>144</dim>
					<dim>1</dim>
					<dim>1</dim>
				</port>
			</output>
		</layer>
		<layer id="230" name="Constant_1184" type="Const" version="opset1">
			<data element_type="f32" shape="" offset="5584" size="4" />
			<output>
				<port id="0" precision="FP32" />
			</output>
		</layer>
		<layer id="231" name="Constant_1185" type="Const" version="opset1">
			<data element_type="f32" shape="" offset="5588" size="4" />
			<output>
				<port id="0" precision="FP32" />
			</output>
		</layer>
		<layer id="232" name="/model.0/model/blocks.4/blocks.4.0/se/gate/HardSigmoid" type="HardSigmoid" version="opset1">
			<input>
				<port id="0" precision="FP32">
					<dim>1</dim>
					<dim>144</dim>
					<dim>1</dim>
					<dim>1</dim>
				</port>
				<port id="1" precision="FP32" />
				<port id="2" precision="FP32" />
			</input>
			<output>
				<port id="3" precision="FP32" names="/model.0/model/blocks.4/blocks.4.0/se/gate/HardSigmoid_output_0">
					<dim>1</dim>
					<dim>144</dim>
					<dim>1</dim>
					<dim>1</dim>
				</port>
			</output>
		</layer>
		<layer id="233" name="/model.0/model/blocks.4/blocks.4.0/se/Mul" type="Multiply" version="opset1">
			<data auto_broadcast="numpy" />
			<input>
				<port id="0" precision="FP32">
					<dim>1</dim>
					<dim>144</dim>
					<dim>3</dim>
					<dim>4</dim>
				</port>
				<port id="1" precision="FP32">
					<dim>1</dim>
					<dim>144</dim>
					<dim>1</dim>
					<dim>1</dim>
				</port>
			</input>
			<output>
				<port id="2" precision="FP32" names="/model.0/model/blocks.4/blocks.4.0/se/Mul_output_0">
					<dim>1</dim>
					<dim>144</dim>
					<dim>3</dim>
					<dim>4</dim>
				</port>
			</output>
		</layer>
		<layer id="234" name="onnx::Conv_770" type="Const" version="opset1">
			<data element_type="f32" shape="48, 144, 1, 1" offset="375480" size="27648" />
			<output>
				<port id="0" precision="FP32" names="onnx::Conv_770">
					<dim>48</dim>
					<dim>144</dim>
					<dim>1</dim>
					<dim>1</dim>
				</port>
			</output>
		</layer>
		<layer id="235" name="/model.0/model/blocks.4/blocks.4.0/conv_pwl/Conv/WithoutBiases" type="Convolution" version="opset1">
			<data strides="1, 1" dilations="1, 1" pads_begin="0, 0" pads_end="0, 0" auto_pad="explicit" />
			<input>
				<port id="0" precision="FP32">
					<dim>1</dim>
					<dim>144</dim>
					<dim>3</dim>
					<dim>4</dim>
				</port>
				<port id="1" precision="FP32">
					<dim>48</dim>
					<dim>144</dim>
					<dim>1</dim>
					<dim>1</dim>
				</port>
			</input>
			<output>
				<port id="2" precision="FP32">
					<dim>1</dim>
					<dim>48</dim>
					<dim>3</dim>
					<dim>4</dim>
				</port>
			</output>
		</layer>
		<layer id="236" name="Reshape_1199" type="Const" version="opset1">
			<data element_type="f32" shape="1, 48, 1, 1" offset="403128" size="192" />
			<output>
				<port id="0" precision="FP32">
					<dim>1</dim>
					<dim>48</dim>
					<dim>1</dim>
					<dim>1</dim>
				</port>
			</output>
		</layer>
		<layer id="237" name="/model.0/model/blocks.4/blocks.4.0/conv_pwl/Conv" type="Add" version="opset1">
			<data auto_broadcast="numpy" />
			<input>
				<port id="0" precision="FP32">
					<dim>1</dim>
					<dim>48</dim>
					<dim>3</dim>
					<dim>4</dim>
				</port>
				<port id="1" precision="FP32">
					<dim>1</dim>
					<dim>48</dim>
					<dim>1</dim>
					<dim>1</dim>
				</port>
			</input>
			<output>
				<port id="2" precision="FP32" names="/model.0/model/blocks.4/blocks.4.0/conv_pwl/Conv_output_0">
					<dim>1</dim>
					<dim>48</dim>
					<dim>3</dim>
					<dim>4</dim>
				</port>
			</output>
		</layer>
		<layer id="238" name="onnx::Conv_773" type="Const" version="opset1">
			<data element_type="f32" shape="288, 48, 1, 1" offset="403320" size="55296" />
			<output>
				<port id="0" precision="FP32" names="onnx::Conv_773">
					<dim>288</dim>
					<dim>48</dim>
					<dim>1</dim>
					<dim>1</dim>
				</port>
			</output>
		</layer>
		<layer id="239" name="/model.0/model/blocks.4/blocks.4.1/conv_pw/Conv/WithoutBiases" type="Convolution" version="opset1">
			<data strides="1, 1" dilations="1, 1" pads_begin="0, 0" pads_end="0, 0" auto_pad="explicit" />
			<input>
				<port id="0" precision="FP32">
					<dim>1</dim>
					<dim>48</dim>
					<dim>3</dim>
					<dim>4</dim>
				</port>
				<port id="1" precision="FP32">
					<dim>288</dim>
					<dim>48</dim>
					<dim>1</dim>
					<dim>1</dim>
				</port>
			</input>
			<output>
				<port id="2" precision="FP32">
					<dim>1</dim>
					<dim>288</dim>
					<dim>3</dim>
					<dim>4</dim>
				</port>
			</output>
		</layer>
		<layer id="240" name="Reshape_1212" type="Const" version="opset1">
			<data element_type="f32" shape="1, 288, 1, 1" offset="458616" size="1152" />
			<output>
				<port id="0" precision="FP32">
					<dim>1</dim>
					<dim>288</dim>
					<dim>1</dim>
					<dim>1</dim>
				</port>
			</output>
		</layer>
		<layer id="241" name="/model.0/model/blocks.4/blocks.4.1/conv_pw/Conv" type="Add" version="opset1">
			<data auto_broadcast="numpy" />
			<input>
				<port id="0" precision="FP32">
					<dim>1</dim>
					<dim>288</dim>
					<dim>3</dim>
					<dim>4</dim>
				</port>
				<port id="1" precision="FP32">
					<dim>1</dim>
					<dim>288</dim>
					<dim>1</dim>
					<dim>1</dim>
				</port>
			</input>
			<output>
				<port id="2" precision="FP32" names="/model.0/model/blocks.4/blocks.4.1/conv_pw/Conv_output_0">
					<dim>1</dim>
					<dim>288</dim>
					<dim>3</dim>
					<dim>4</dim>
				</port>
			</output>
		</layer>
		<layer id="242" name="/model.0/model/blocks.4/blocks.4.1/bn1/act/HardSwish" type="HSwish" version="opset4">
			<input>
				<port id="0" precision="FP32">
					<dim>1</dim>
					<dim>288</dim>
					<dim>3</dim>
					<dim>4</dim>
				</port>
			</input>
			<output>
				<port id="1" precision="FP32" names="/model.0/model/blocks.4/blocks.4.1/bn1/act/HardSwish_output_0">
					<dim>1</dim>
					<dim>288</dim>
					<dim>3</dim>
					<dim>4</dim>
				</port>
			</output>
		</layer>
		<layer id="243" name="Reshape_1222" type="Const" version="opset1">
			<data element_type="f32" shape="288, 1, 1, 5, 5" offset="459768" size="28800" />
			<output>
				<port id="0" precision="FP32">
					<dim>288</dim>
					<dim>1</dim>
					<dim>1</dim>
					<dim>5</dim>
					<dim>5</dim>
				</port>
			</output>
		</layer>
		<layer id="244" name="/model.0/model/blocks.4/blocks.4.1/conv_dw/Conv/WithoutBiases" type="GroupConvolution" version="opset1">
			<data strides="1, 1" pads_begin="2, 2" pads_end="2, 2" dilations="1, 1" auto_pad="explicit" />
			<input>
				<port id="0" precision="FP32">
					<dim>1</dim>
					<dim>288</dim>
					<dim>3</dim>
					<dim>4</dim>
				</port>
				<port id="1" precision="FP32">
					<dim>288</dim>
					<dim>1</dim>
					<dim>1</dim>
					<dim>5</dim>
					<dim>5</dim>
				</port>
			</input>
			<output>
				<port id="2" precision="FP32">
					<dim>1</dim>
					<dim>288</dim>
					<dim>3</dim>
					<dim>4</dim>
				</port>
			</output>
		</layer>
		<layer id="245" name="Reshape_1272" type="Const" version="opset1">
			<data element_type="f32" shape="1, 288, 1, 1" offset="488568" size="1152" />
			<output>
				<port id="0" precision="FP32">
					<dim>1</dim>
					<dim>288</dim>
					<dim>1</dim>
					<dim>1</dim>
				</port>
			</output>
		</layer>
		<layer id="246" name="/model.0/model/blocks.4/blocks.4.1/conv_dw/Conv" type="Add" version="opset1">
			<data auto_broadcast="numpy" />
			<input>
				<port id="0" precision="FP32">
					<dim>1</dim>
					<dim>288</dim>
					<dim>3</dim>
					<dim>4</dim>
				</port>
				<port id="1" precision="FP32">
					<dim>1</dim>
					<dim>288</dim>
					<dim>1</dim>
					<dim>1</dim>
				</port>
			</input>
			<output>
				<port id="2" precision="FP32" names="/model.0/model/blocks.4/blocks.4.1/conv_dw/Conv_output_0">
					<dim>1</dim>
					<dim>288</dim>
					<dim>3</dim>
					<dim>4</dim>
				</port>
			</output>
		</layer>
		<layer id="247" name="/model.0/model/blocks.4/blocks.4.1/bn2/act/HardSwish" type="HSwish" version="opset4">
			<input>
				<port id="0" precision="FP32">
					<dim>1</dim>
					<dim>288</dim>
					<dim>3</dim>
					<dim>4</dim>
				</port>
			</input>
			<output>
				<port id="1" precision="FP32" names="/model.0/model/blocks.4/blocks.4.1/bn2/act/HardSwish_output_0">
					<dim>1</dim>
					<dim>288</dim>
					<dim>3</dim>
					<dim>4</dim>
				</port>
			</output>
		</layer>
		<layer id="248" name="Constant_1275" type="Const" version="opset1">
			<data element_type="i64" shape="2" offset="4448" size="16" />
			<output>
				<port id="0" precision="I64">
					<dim>2</dim>
				</port>
			</output>
		</layer>
		<layer id="249" name="/model.0/model/blocks.4/blocks.4.1/se/ReduceMean" type="ReduceMean" version="opset1">
			<data keep_dims="true" />
			<input>
				<port id="0" precision="FP32">
					<dim>1</dim>
					<dim>288</dim>
					<dim>3</dim>
					<dim>4</dim>
				</port>
				<port id="1" precision="I64">
					<dim>2</dim>
				</port>
			</input>
			<output>
				<port id="2" precision="FP32" names="/model.0/model/blocks.4/blocks.4.1/se/ReduceMean_output_0">
					<dim>1</dim>
					<dim>288</dim>
					<dim>1</dim>
					<dim>1</dim>
				</port>
			</output>
		</layer>
		<layer id="250" name="model.0.model.blocks.4.1.se.conv_reduce.weight" type="Const" version="opset1">
			<data element_type="f32" shape="72, 288, 1, 1" offset="489720" size="82944" />
			<output>
				<port id="0" precision="FP32" names="model.0.model.blocks.4.1.se.conv_reduce.weight">
					<dim>72</dim>
					<dim>288</dim>
					<dim>1</dim>
					<dim>1</dim>
				</port>
			</output>
		</layer>
		<layer id="251" name="/model.0/model/blocks.4/blocks.4.1/se/conv_reduce/Conv/WithoutBiases" type="Convolution" version="opset1">
			<data strides="1, 1" dilations="1, 1" pads_begin="0, 0" pads_end="0, 0" auto_pad="explicit" />
			<input>
				<port id="0" precision="FP32">
					<dim>1</dim>
					<dim>288</dim>
					<dim>1</dim>
					<dim>1</dim>
				</port>
				<port id="1" precision="FP32">
					<dim>72</dim>
					<dim>288</dim>
					<dim>1</dim>
					<dim>1</dim>
				</port>
			</input>
			<output>
				<port id="2" precision="FP32">
					<dim>1</dim>
					<dim>72</dim>
					<dim>1</dim>
					<dim>1</dim>
				</port>
			</output>
		</layer>
		<layer id="252" name="Reshape_1288" type="Const" version="opset1">
			<data element_type="f32" shape="1, 72, 1, 1" offset="572664" size="288" />
			<output>
				<port id="0" precision="FP32">
					<dim>1</dim>
					<dim>72</dim>
					<dim>1</dim>
					<dim>1</dim>
				</port>
			</output>
		</layer>
		<layer id="253" name="/model.0/model/blocks.4/blocks.4.1/se/conv_reduce/Conv" type="Add" version="opset1">
			<data auto_broadcast="numpy" />
			<input>
				<port id="0" precision="FP32">
					<dim>1</dim>
					<dim>72</dim>
					<dim>1</dim>
					<dim>1</dim>
				</port>
				<port id="1" precision="FP32">
					<dim>1</dim>
					<dim>72</dim>
					<dim>1</dim>
					<dim>1</dim>
				</port>
			</input>
			<output>
				<port id="2" precision="FP32" names="/model.0/model/blocks.4/blocks.4.1/se/conv_reduce/Conv_output_0">
					<dim>1</dim>
					<dim>72</dim>
					<dim>1</dim>
					<dim>1</dim>
				</port>
			</output>
		</layer>
		<layer id="254" name="/model.0/model/blocks.4/blocks.4.1/se/act1/Relu" type="ReLU" version="opset1">
			<input>
				<port id="0" precision="FP32">
					<dim>1</dim>
					<dim>72</dim>
					<dim>1</dim>
					<dim>1</dim>
				</port>
			</input>
			<output>
				<port id="1" precision="FP32" names="/model.0/model/blocks.4/blocks.4.1/se/act1/Relu_output_0">
					<dim>1</dim>
					<dim>72</dim>
					<dim>1</dim>
					<dim>1</dim>
				</port>
			</output>
		</layer>
		<layer id="255" name="model.0.model.blocks.4.1.se.conv_expand.weight" type="Const" version="opset1">
			<data element_type="f32" shape="288, 72, 1, 1" offset="572952" size="82944" />
			<output>
				<port id="0" precision="FP32" names="model.0.model.blocks.4.1.se.conv_expand.weight">
					<dim>288</dim>
					<dim>72</dim>
					<dim>1</dim>
					<dim>1</dim>
				</port>
			</output>
		</layer>
		<layer id="256" name="/model.0/model/blocks.4/blocks.4.1/se/conv_expand/Conv/WithoutBiases" type="Convolution" version="opset1">
			<data strides="1, 1" dilations="1, 1" pads_begin="0, 0" pads_end="0, 0" auto_pad="explicit" />
			<input>
				<port id="0" precision="FP32">
					<dim>1</dim>
					<dim>72</dim>
					<dim>1</dim>
					<dim>1</dim>
				</port>
				<port id="1" precision="FP32">
					<dim>288</dim>
					<dim>72</dim>
					<dim>1</dim>
					<dim>1</dim>
				</port>
			</input>
			<output>
				<port id="2" precision="FP32">
					<dim>1</dim>
					<dim>288</dim>
					<dim>1</dim>
					<dim>1</dim>
				</port>
			</output>
		</layer>
		<layer id="257" name="Reshape_1302" type="Const" version="opset1">
			<data element_type="f32" shape="1, 288, 1, 1" offset="655896" size="1152" />
			<output>
				<port id="0" precision="FP32">
					<dim>1</dim>
					<dim>288</dim>
					<dim>1</dim>
					<dim>1</dim>
				</port>
			</output>
		</layer>
		<layer id="258" name="/model.0/model/blocks.4/blocks.4.1/se/conv_expand/Conv" type="Add" version="opset1">
			<data auto_broadcast="numpy" />
			<input>
				<port id="0" precision="FP32">
					<dim>1</dim>
					<dim>288</dim>
					<dim>1</dim>
					<dim>1</dim>
				</port>
				<port id="1" precision="FP32">
					<dim>1</dim>
					<dim>288</dim>
					<dim>1</dim>
					<dim>1</dim>
				</port>
			</input>
			<output>
				<port id="2" precision="FP32" names="/model.0/model/blocks.4/blocks.4.1/se/conv_expand/Conv_output_0">
					<dim>1</dim>
					<dim>288</dim>
					<dim>1</dim>
					<dim>1</dim>
				</port>
			</output>
		</layer>
		<layer id="259" name="Constant_1304" type="Const" version="opset1">
			<data element_type="f32" shape="" offset="5584" size="4" />
			<output>
				<port id="0" precision="FP32" />
			</output>
		</layer>
		<layer id="260" name="Constant_1305" type="Const" version="opset1">
			<data element_type="f32" shape="" offset="5588" size="4" />
			<output>
				<port id="0" precision="FP32" />
			</output>
		</layer>
		<layer id="261" name="/model.0/model/blocks.4/blocks.4.1/se/gate/HardSigmoid" type="HardSigmoid" version="opset1">
			<input>
				<port id="0" precision="FP32">
					<dim>1</dim>
					<dim>288</dim>
					<dim>1</dim>
					<dim>1</dim>
				</port>
				<port id="1" precision="FP32" />
				<port id="2" precision="FP32" />
			</input>
			<output>
				<port id="3" precision="FP32" names="/model.0/model/blocks.4/blocks.4.1/se/gate/HardSigmoid_output_0">
					<dim>1</dim>
					<dim>288</dim>
					<dim>1</dim>
					<dim>1</dim>
				</port>
			</output>
		</layer>
		<layer id="262" name="/model.0/model/blocks.4/blocks.4.1/se/Mul" type="Multiply" version="opset1">
			<data auto_broadcast="numpy" />
			<input>
				<port id="0" precision="FP32">
					<dim>1</dim>
					<dim>288</dim>
					<dim>3</dim>
					<dim>4</dim>
				</port>
				<port id="1" precision="FP32">
					<dim>1</dim>
					<dim>288</dim>
					<dim>1</dim>
					<dim>1</dim>
				</port>
			</input>
			<output>
				<port id="2" precision="FP32" names="/model.0/model/blocks.4/blocks.4.1/se/Mul_output_0">
					<dim>1</dim>
					<dim>288</dim>
					<dim>3</dim>
					<dim>4</dim>
				</port>
			</output>
		</layer>
		<layer id="263" name="onnx::Conv_779" type="Const" version="opset1">
			<data element_type="f32" shape="48, 288, 1, 1" offset="657048" size="55296" />
			<output>
				<port id="0" precision="FP32" names="onnx::Conv_779">
					<dim>48</dim>
					<dim>288</dim>
					<dim>1</dim>
					<dim>1</dim>
				</port>
			</output>
		</layer>
		<layer id="264" name="/model.0/model/blocks.4/blocks.4.1/conv_pwl/Conv/WithoutBiases" type="Convolution" version="opset1">
			<data strides="1, 1" dilations="1, 1" pads_begin="0, 0" pads_end="0, 0" auto_pad="explicit" />
			<input>
				<port id="0" precision="FP32">
					<dim>1</dim>
					<dim>288</dim>
					<dim>3</dim>
					<dim>4</dim>
				</port>
				<port id="1" precision="FP32">
					<dim>48</dim>
					<dim>288</dim>
					<dim>1</dim>
					<dim>1</dim>
				</port>
			</input>
			<output>
				<port id="2" precision="FP32">
					<dim>1</dim>
					<dim>48</dim>
					<dim>3</dim>
					<dim>4</dim>
				</port>
			</output>
		</layer>
		<layer id="265" name="Reshape_1319" type="Const" version="opset1">
			<data element_type="f32" shape="1, 48, 1, 1" offset="712344" size="192" />
			<output>
				<port id="0" precision="FP32">
					<dim>1</dim>
					<dim>48</dim>
					<dim>1</dim>
					<dim>1</dim>
				</port>
			</output>
		</layer>
		<layer id="266" name="/model.0/model/blocks.4/blocks.4.1/conv_pwl/Conv" type="Add" version="opset1">
			<data auto_broadcast="numpy" />
			<input>
				<port id="0" precision="FP32">
					<dim>1</dim>
					<dim>48</dim>
					<dim>3</dim>
					<dim>4</dim>
				</port>
				<port id="1" precision="FP32">
					<dim>1</dim>
					<dim>48</dim>
					<dim>1</dim>
					<dim>1</dim>
				</port>
			</input>
			<output>
				<port id="2" precision="FP32" names="/model.0/model/blocks.4/blocks.4.1/conv_pwl/Conv_output_0">
					<dim>1</dim>
					<dim>48</dim>
					<dim>3</dim>
					<dim>4</dim>
				</port>
			</output>
		</layer>
		<layer id="267" name="/model.0/model/blocks.4/blocks.4.1/Add" type="Add" version="opset1">
			<data auto_broadcast="numpy" />
			<input>
				<port id="0" precision="FP32">
					<dim>1</dim>
					<dim>48</dim>
					<dim>3</dim>
					<dim>4</dim>
				</port>
				<port id="1" precision="FP32">
					<dim>1</dim>
					<dim>48</dim>
					<dim>3</dim>
					<dim>4</dim>
				</port>
			</input>
			<output>
				<port id="2" precision="FP32" names="/model.0/model/blocks.4/blocks.4.1/Add_output_0">
					<dim>1</dim>
					<dim>48</dim>
					<dim>3</dim>
					<dim>4</dim>
				</port>
			</output>
		</layer>
		<layer id="268" name="onnx::Conv_782" type="Const" version="opset1">
			<data element_type="f32" shape="288, 48, 1, 1" offset="712536" size="55296" />
			<output>
				<port id="0" precision="FP32" names="onnx::Conv_782">
					<dim>288</dim>
					<dim>48</dim>
					<dim>1</dim>
					<dim>1</dim>
				</port>
			</output>
		</layer>
		<layer id="269" name="/model.0/model/blocks.4/blocks.4.2/conv_pw/Conv/WithoutBiases" type="Convolution" version="opset1">
			<data strides="1, 1" dilations="1, 1" pads_begin="0, 0" pads_end="0, 0" auto_pad="explicit" />
			<input>
				<port id="0" precision="FP32">
					<dim>1</dim>
					<dim>48</dim>
					<dim>3</dim>
					<dim>4</dim>
				</port>
				<port id="1" precision="FP32">
					<dim>288</dim>
					<dim>48</dim>
					<dim>1</dim>
					<dim>1</dim>
				</port>
			</input>
			<output>
				<port id="2" precision="FP32">
					<dim>1</dim>
					<dim>288</dim>
					<dim>3</dim>
					<dim>4</dim>
				</port>
			</output>
		</layer>
		<layer id="270" name="Reshape_1333" type="Const" version="opset1">
			<data element_type="f32" shape="1, 288, 1, 1" offset="767832" size="1152" />
			<output>
				<port id="0" precision="FP32">
					<dim>1</dim>
					<dim>288</dim>
					<dim>1</dim>
					<dim>1</dim>
				</port>
			</output>
		</layer>
		<layer id="271" name="/model.0/model/blocks.4/blocks.4.2/conv_pw/Conv" type="Add" version="opset1">
			<data auto_broadcast="numpy" />
			<input>
				<port id="0" precision="FP32">
					<dim>1</dim>
					<dim>288</dim>
					<dim>3</dim>
					<dim>4</dim>
				</port>
				<port id="1" precision="FP32">
					<dim>1</dim>
					<dim>288</dim>
					<dim>1</dim>
					<dim>1</dim>
				</port>
			</input>
			<output>
				<port id="2" precision="FP32" names="/model.0/model/blocks.4/blocks.4.2/conv_pw/Conv_output_0">
					<dim>1</dim>
					<dim>288</dim>
					<dim>3</dim>
					<dim>4</dim>
				</port>
			</output>
		</layer>
		<layer id="272" name="/model.0/model/blocks.4/blocks.4.2/bn1/act/HardSwish" type="HSwish" version="opset4">
			<input>
				<port id="0" precision="FP32">
					<dim>1</dim>
					<dim>288</dim>
					<dim>3</dim>
					<dim>4</dim>
				</port>
			</input>
			<output>
				<port id="1" precision="FP32" names="/model.0/model/blocks.4/blocks.4.2/bn1/act/HardSwish_output_0">
					<dim>1</dim>
					<dim>288</dim>
					<dim>3</dim>
					<dim>4</dim>
				</port>
			</output>
		</layer>
		<layer id="273" name="Reshape_1343" type="Const" version="opset1">
			<data element_type="f32" shape="288, 1, 1, 5, 5" offset="768984" size="28800" />
			<output>
				<port id="0" precision="FP32">
					<dim>288</dim>
					<dim>1</dim>
					<dim>1</dim>
					<dim>5</dim>
					<dim>5</dim>
				</port>
			</output>
		</layer>
		<layer id="274" name="/model.0/model/blocks.4/blocks.4.2/conv_dw/Conv/WithoutBiases" type="GroupConvolution" version="opset1">
			<data strides="1, 1" pads_begin="2, 2" pads_end="2, 2" dilations="1, 1" auto_pad="explicit" />
			<input>
				<port id="0" precision="FP32">
					<dim>1</dim>
					<dim>288</dim>
					<dim>3</dim>
					<dim>4</dim>
				</port>
				<port id="1" precision="FP32">
					<dim>288</dim>
					<dim>1</dim>
					<dim>1</dim>
					<dim>5</dim>
					<dim>5</dim>
				</port>
			</input>
			<output>
				<port id="2" precision="FP32">
					<dim>1</dim>
					<dim>288</dim>
					<dim>3</dim>
					<dim>4</dim>
				</port>
			</output>
		</layer>
		<layer id="275" name="Reshape_1393" type="Const" version="opset1">
			<data element_type="f32" shape="1, 288, 1, 1" offset="797784" size="1152" />
			<output>
				<port id="0" precision="FP32">
					<dim>1</dim>
					<dim>288</dim>
					<dim>1</dim>
					<dim>1</dim>
				</port>
			</output>
		</layer>
		<layer id="276" name="/model.0/model/blocks.4/blocks.4.2/conv_dw/Conv" type="Add" version="opset1">
			<data auto_broadcast="numpy" />
			<input>
				<port id="0" precision="FP32">
					<dim>1</dim>
					<dim>288</dim>
					<dim>3</dim>
					<dim>4</dim>
				</port>
				<port id="1" precision="FP32">
					<dim>1</dim>
					<dim>288</dim>
					<dim>1</dim>
					<dim>1</dim>
				</port>
			</input>
			<output>
				<port id="2" precision="FP32" names="/model.0/model/blocks.4/blocks.4.2/conv_dw/Conv_output_0">
					<dim>1</dim>
					<dim>288</dim>
					<dim>3</dim>
					<dim>4</dim>
				</port>
			</output>
		</layer>
		<layer id="277" name="/model.0/model/blocks.4/blocks.4.2/bn2/act/HardSwish" type="HSwish" version="opset4">
			<input>
				<port id="0" precision="FP32">
					<dim>1</dim>
					<dim>288</dim>
					<dim>3</dim>
					<dim>4</dim>
				</port>
			</input>
			<output>
				<port id="1" precision="FP32" names="/model.0/model/blocks.4/blocks.4.2/bn2/act/HardSwish_output_0">
					<dim>1</dim>
					<dim>288</dim>
					<dim>3</dim>
					<dim>4</dim>
				</port>
			</output>
		</layer>
		<layer id="278" name="Constant_1396" type="Const" version="opset1">
			<data element_type="i64" shape="2" offset="4448" size="16" />
			<output>
				<port id="0" precision="I64">
					<dim>2</dim>
				</port>
			</output>
		</layer>
		<layer id="279" name="/model.0/model/blocks.4/blocks.4.2/se/ReduceMean" type="ReduceMean" version="opset1">
			<data keep_dims="true" />
			<input>
				<port id="0" precision="FP32">
					<dim>1</dim>
					<dim>288</dim>
					<dim>3</dim>
					<dim>4</dim>
				</port>
				<port id="1" precision="I64">
					<dim>2</dim>
				</port>
			</input>
			<output>
				<port id="2" precision="FP32" names="/model.0/model/blocks.4/blocks.4.2/se/ReduceMean_output_0">
					<dim>1</dim>
					<dim>288</dim>
					<dim>1</dim>
					<dim>1</dim>
				</port>
			</output>
		</layer>
		<layer id="280" name="model.0.model.blocks.4.2.se.conv_reduce.weight" type="Const" version="opset1">
			<data element_type="f32" shape="72, 288, 1, 1" offset="798936" size="82944" />
			<output>
				<port id="0" precision="FP32" names="model.0.model.blocks.4.2.se.conv_reduce.weight">
					<dim>72</dim>
					<dim>288</dim>
					<dim>1</dim>
					<dim>1</dim>
				</port>
			</output>
		</layer>
		<layer id="281" name="/model.0/model/blocks.4/blocks.4.2/se/conv_reduce/Conv/WithoutBiases" type="Convolution" version="opset1">
			<data strides="1, 1" dilations="1, 1" pads_begin="0, 0" pads_end="0, 0" auto_pad="explicit" />
			<input>
				<port id="0" precision="FP32">
					<dim>1</dim>
					<dim>288</dim>
					<dim>1</dim>
					<dim>1</dim>
				</port>
				<port id="1" precision="FP32">
					<dim>72</dim>
					<dim>288</dim>
					<dim>1</dim>
					<dim>1</dim>
				</port>
			</input>
			<output>
				<port id="2" precision="FP32">
					<dim>1</dim>
					<dim>72</dim>
					<dim>1</dim>
					<dim>1</dim>
				</port>
			</output>
		</layer>
		<layer id="282" name="Reshape_1409" type="Const" version="opset1">
			<data element_type="f32" shape="1, 72, 1, 1" offset="881880" size="288" />
			<output>
				<port id="0" precision="FP32">
					<dim>1</dim>
					<dim>72</dim>
					<dim>1</dim>
					<dim>1</dim>
				</port>
			</output>
		</layer>
		<layer id="283" name="/model.0/model/blocks.4/blocks.4.2/se/conv_reduce/Conv" type="Add" version="opset1">
			<data auto_broadcast="numpy" />
			<input>
				<port id="0" precision="FP32">
					<dim>1</dim>
					<dim>72</dim>
					<dim>1</dim>
					<dim>1</dim>
				</port>
				<port id="1" precision="FP32">
					<dim>1</dim>
					<dim>72</dim>
					<dim>1</dim>
					<dim>1</dim>
				</port>
			</input>
			<output>
				<port id="2" precision="FP32" names="/model.0/model/blocks.4/blocks.4.2/se/conv_reduce/Conv_output_0">
					<dim>1</dim>
					<dim>72</dim>
					<dim>1</dim>
					<dim>1</dim>
				</port>
			</output>
		</layer>
		<layer id="284" name="/model.0/model/blocks.4/blocks.4.2/se/act1/Relu" type="ReLU" version="opset1">
			<input>
				<port id="0" precision="FP32">
					<dim>1</dim>
					<dim>72</dim>
					<dim>1</dim>
					<dim>1</dim>
				</port>
			</input>
			<output>
				<port id="1" precision="FP32" names="/model.0/model/blocks.4/blocks.4.2/se/act1/Relu_output_0">
					<dim>1</dim>
					<dim>72</dim>
					<dim>1</dim>
					<dim>1</dim>
				</port>
			</output>
		</layer>
		<layer id="285" name="model.0.model.blocks.4.2.se.conv_expand.weight" type="Const" version="opset1">
			<data element_type="f32" shape="288, 72, 1, 1" offset="882168" size="82944" />
			<output>
				<port id="0" precision="FP32" names="model.0.model.blocks.4.2.se.conv_expand.weight">
					<dim>288</dim>
					<dim>72</dim>
					<dim>1</dim>
					<dim>1</dim>
				</port>
			</output>
		</layer>
		<layer id="286" name="/model.0/model/blocks.4/blocks.4.2/se/conv_expand/Conv/WithoutBiases" type="Convolution" version="opset1">
			<data strides="1, 1" dilations="1, 1" pads_begin="0, 0" pads_end="0, 0" auto_pad="explicit" />
			<input>
				<port id="0" precision="FP32">
					<dim>1</dim>
					<dim>72</dim>
					<dim>1</dim>
					<dim>1</dim>
				</port>
				<port id="1" precision="FP32">
					<dim>288</dim>
					<dim>72</dim>
					<dim>1</dim>
					<dim>1</dim>
				</port>
			</input>
			<output>
				<port id="2" precision="FP32">
					<dim>1</dim>
					<dim>288</dim>
					<dim>1</dim>
					<dim>1</dim>
				</port>
			</output>
		</layer>
		<layer id="287" name="Reshape_1423" type="Const" version="opset1">
			<data element_type="f32" shape="1, 288, 1, 1" offset="965112" size="1152" />
			<output>
				<port id="0" precision="FP32">
					<dim>1</dim>
					<dim>288</dim>
					<dim>1</dim>
					<dim>1</dim>
				</port>
			</output>
		</layer>
		<layer id="288" name="/model.0/model/blocks.4/blocks.4.2/se/conv_expand/Conv" type="Add" version="opset1">
			<data auto_broadcast="numpy" />
			<input>
				<port id="0" precision="FP32">
					<dim>1</dim>
					<dim>288</dim>
					<dim>1</dim>
					<dim>1</dim>
				</port>
				<port id="1" precision="FP32">
					<dim>1</dim>
					<dim>288</dim>
					<dim>1</dim>
					<dim>1</dim>
				</port>
			</input>
			<output>
				<port id="2" precision="FP32" names="/model.0/model/blocks.4/blocks.4.2/se/conv_expand/Conv_output_0">
					<dim>1</dim>
					<dim>288</dim>
					<dim>1</dim>
					<dim>1</dim>
				</port>
			</output>
		</layer>
		<layer id="289" name="Constant_1425" type="Const" version="opset1">
			<data element_type="f32" shape="" offset="5584" size="4" />
			<output>
				<port id="0" precision="FP32" />
			</output>
		</layer>
		<layer id="290" name="Constant_1426" type="Const" version="opset1">
			<data element_type="f32" shape="" offset="5588" size="4" />
			<output>
				<port id="0" precision="FP32" />
			</output>
		</layer>
		<layer id="291" name="/model.0/model/blocks.4/blocks.4.2/se/gate/HardSigmoid" type="HardSigmoid" version="opset1">
			<input>
				<port id="0" precision="FP32">
					<dim>1</dim>
					<dim>288</dim>
					<dim>1</dim>
					<dim>1</dim>
				</port>
				<port id="1" precision="FP32" />
				<port id="2" precision="FP32" />
			</input>
			<output>
				<port id="3" precision="FP32" names="/model.0/model/blocks.4/blocks.4.2/se/gate/HardSigmoid_output_0">
					<dim>1</dim>
					<dim>288</dim>
					<dim>1</dim>
					<dim>1</dim>
				</port>
			</output>
		</layer>
		<layer id="292" name="/model.0/model/blocks.4/blocks.4.2/se/Mul" type="Multiply" version="opset1">
			<data auto_broadcast="numpy" />
			<input>
				<port id="0" precision="FP32">
					<dim>1</dim>
					<dim>288</dim>
					<dim>3</dim>
					<dim>4</dim>
				</port>
				<port id="1" precision="FP32">
					<dim>1</dim>
					<dim>288</dim>
					<dim>1</dim>
					<dim>1</dim>
				</port>
			</input>
			<output>
				<port id="2" precision="FP32" names="/model.0/model/blocks.4/blocks.4.2/se/Mul_output_0">
					<dim>1</dim>
					<dim>288</dim>
					<dim>3</dim>
					<dim>4</dim>
				</port>
			</output>
		</layer>
		<layer id="293" name="onnx::Conv_788" type="Const" version="opset1">
			<data element_type="f32" shape="48, 288, 1, 1" offset="966264" size="55296" />
			<output>
				<port id="0" precision="FP32" names="onnx::Conv_788">
					<dim>48</dim>
					<dim>288</dim>
					<dim>1</dim>
					<dim>1</dim>
				</port>
			</output>
		</layer>
		<layer id="294" name="/model.0/model/blocks.4/blocks.4.2/conv_pwl/Conv/WithoutBiases" type="Convolution" version="opset1">
			<data strides="1, 1" dilations="1, 1" pads_begin="0, 0" pads_end="0, 0" auto_pad="explicit" />
			<input>
				<port id="0" precision="FP32">
					<dim>1</dim>
					<dim>288</dim>
					<dim>3</dim>
					<dim>4</dim>
				</port>
				<port id="1" precision="FP32">
					<dim>48</dim>
					<dim>288</dim>
					<dim>1</dim>
					<dim>1</dim>
				</port>
			</input>
			<output>
				<port id="2" precision="FP32">
					<dim>1</dim>
					<dim>48</dim>
					<dim>3</dim>
					<dim>4</dim>
				</port>
			</output>
		</layer>
		<layer id="295" name="Reshape_1440" type="Const" version="opset1">
			<data element_type="f32" shape="1, 48, 1, 1" offset="1021560" size="192" />
			<output>
				<port id="0" precision="FP32">
					<dim>1</dim>
					<dim>48</dim>
					<dim>1</dim>
					<dim>1</dim>
				</port>
			</output>
		</layer>
		<layer id="296" name="/model.0/model/blocks.4/blocks.4.2/conv_pwl/Conv" type="Add" version="opset1">
			<data auto_broadcast="numpy" />
			<input>
				<port id="0" precision="FP32">
					<dim>1</dim>
					<dim>48</dim>
					<dim>3</dim>
					<dim>4</dim>
				</port>
				<port id="1" precision="FP32">
					<dim>1</dim>
					<dim>48</dim>
					<dim>1</dim>
					<dim>1</dim>
				</port>
			</input>
			<output>
				<port id="2" precision="FP32" names="/model.0/model/blocks.4/blocks.4.2/conv_pwl/Conv_output_0">
					<dim>1</dim>
					<dim>48</dim>
					<dim>3</dim>
					<dim>4</dim>
				</port>
			</output>
		</layer>
		<layer id="297" name="/model.0/model/blocks.4/blocks.4.2/Add" type="Add" version="opset1">
			<data auto_broadcast="numpy" />
			<input>
				<port id="0" precision="FP32">
					<dim>1</dim>
					<dim>48</dim>
					<dim>3</dim>
					<dim>4</dim>
				</port>
				<port id="1" precision="FP32">
					<dim>1</dim>
					<dim>48</dim>
					<dim>3</dim>
					<dim>4</dim>
				</port>
			</input>
			<output>
				<port id="2" precision="FP32" names="/model.0/model/blocks.4/blocks.4.2/Add_output_0">
					<dim>1</dim>
					<dim>48</dim>
					<dim>3</dim>
					<dim>4</dim>
				</port>
			</output>
		</layer>
		<layer id="298" name="onnx::Conv_791" type="Const" version="opset1">
			<data element_type="f32" shape="288, 48, 1, 1" offset="1021752" size="55296" />
			<output>
				<port id="0" precision="FP32" names="onnx::Conv_791">
					<dim>288</dim>
					<dim>48</dim>
					<dim>1</dim>
					<dim>1</dim>
				</port>
			</output>
		</layer>
		<layer id="299" name="/model.0/model/blocks.5/blocks.5.0/conv/Conv/WithoutBiases" type="Convolution" version="opset1">
			<data strides="1, 1" dilations="1, 1" pads_begin="0, 0" pads_end="0, 0" auto_pad="explicit" />
			<input>
				<port id="0" precision="FP32">
					<dim>1</dim>
					<dim>48</dim>
					<dim>3</dim>
					<dim>4</dim>
				</port>
				<port id="1" precision="FP32">
					<dim>288</dim>
					<dim>48</dim>
					<dim>1</dim>
					<dim>1</dim>
				</port>
			</input>
			<output>
				<port id="2" precision="FP32">
					<dim>1</dim>
					<dim>288</dim>
					<dim>3</dim>
					<dim>4</dim>
				</port>
			</output>
		</layer>
		<layer id="300" name="Reshape_1454" type="Const" version="opset1">
			<data element_type="f32" shape="1, 288, 1, 1" offset="1077048" size="1152" />
			<output>
				<port id="0" precision="FP32">
					<dim>1</dim>
					<dim>288</dim>
					<dim>1</dim>
					<dim>1</dim>
				</port>
			</output>
		</layer>
		<layer id="301" name="/model.0/model/blocks.5/blocks.5.0/conv/Conv" type="Add" version="opset1">
			<data auto_broadcast="numpy" />
			<input>
				<port id="0" precision="FP32">
					<dim>1</dim>
					<dim>288</dim>
					<dim>3</dim>
					<dim>4</dim>
				</port>
				<port id="1" precision="FP32">
					<dim>1</dim>
					<dim>288</dim>
					<dim>1</dim>
					<dim>1</dim>
				</port>
			</input>
			<output>
				<port id="2" precision="FP32" names="/model.0/model/blocks.5/blocks.5.0/conv/Conv_output_0">
					<dim>1</dim>
					<dim>288</dim>
					<dim>3</dim>
					<dim>4</dim>
				</port>
			</output>
		</layer>
		<layer id="302" name="/model.0/model/blocks.5/blocks.5.0/bn1/act/HardSwish" type="HSwish" version="opset4">
			<input>
				<port id="0" precision="FP32">
					<dim>1</dim>
					<dim>288</dim>
					<dim>3</dim>
					<dim>4</dim>
				</port>
			</input>
			<output>
				<port id="1" precision="FP32" names="/model.0/model/blocks.5/blocks.5.0/bn1/act/HardSwish_output_0">
					<dim>1</dim>
					<dim>288</dim>
					<dim>3</dim>
					<dim>4</dim>
				</port>
			</output>
		</layer>
		<layer id="303" name="model.6.cv1.conv.weight" type="Const" version="opset1">
			<data element_type="f32" shape="144, 288, 1, 1" offset="1078200" size="165888" />
			<output>
				<port id="0" precision="FP32" names="model.6.cv1.conv.weight">
					<dim>144</dim>
					<dim>288</dim>
					<dim>1</dim>
					<dim>1</dim>
				</port>
			</output>
		</layer>
		<layer id="304" name="/model.6/cv1/conv/Conv/WithoutBiases" type="Convolution" version="opset1">
			<data strides="1, 1" dilations="1, 1" pads_begin="0, 0" pads_end="0, 0" auto_pad="explicit" />
			<input>
				<port id="0" precision="FP32">
					<dim>1</dim>
					<dim>288</dim>
					<dim>3</dim>
					<dim>4</dim>
				</port>
				<port id="1" precision="FP32">
					<dim>144</dim>
					<dim>288</dim>
					<dim>1</dim>
					<dim>1</dim>
				</port>
			</input>
			<output>
				<port id="2" precision="FP32">
					<dim>1</dim>
					<dim>144</dim>
					<dim>3</dim>
					<dim>4</dim>
				</port>
			</output>
		</layer>
		<layer id="305" name="Reshape_1468" type="Const" version="opset1">
			<data element_type="f32" shape="1, 144, 1, 1" offset="1244088" size="576" />
			<output>
				<port id="0" precision="FP32">
					<dim>1</dim>
					<dim>144</dim>
					<dim>1</dim>
					<dim>1</dim>
				</port>
			</output>
		</layer>
		<layer id="306" name="/model.6/cv1/conv/Conv" type="Add" version="opset1">
			<data auto_broadcast="numpy" />
			<input>
				<port id="0" precision="FP32">
					<dim>1</dim>
					<dim>144</dim>
					<dim>3</dim>
					<dim>4</dim>
				</port>
				<port id="1" precision="FP32">
					<dim>1</dim>
					<dim>144</dim>
					<dim>1</dim>
					<dim>1</dim>
				</port>
			</input>
			<output>
				<port id="2" precision="FP32" names="/model.6/cv1/conv/Conv_output_0">
					<dim>1</dim>
					<dim>144</dim>
					<dim>3</dim>
					<dim>4</dim>
				</port>
			</output>
		</layer>
		<layer id="307" name="/model.6/cv1/act/Mul" type="Swish" version="opset4">
			<input>
				<port id="0" precision="FP32">
					<dim>1</dim>
					<dim>144</dim>
					<dim>3</dim>
					<dim>4</dim>
				</port>
			</input>
			<output>
				<port id="1" precision="FP32" names="/model.6/cv1/act/Mul_output_0">
					<dim>1</dim>
					<dim>144</dim>
					<dim>3</dim>
					<dim>4</dim>
				</port>
			</output>
		</layer>
		<layer id="308" name="/model.6/m/MaxPool" type="MaxPool" version="opset8">
			<data strides="1, 1" dilations="1, 1" pads_begin="2, 2" pads_end="2, 2" kernel="5, 5" rounding_type="floor" auto_pad="explicit" index_element_type="i64" axis="0" />
			<input>
				<port id="0" precision="FP32">
					<dim>1</dim>
					<dim>144</dim>
					<dim>3</dim>
					<dim>4</dim>
				</port>
			</input>
			<output>
				<port id="1" precision="FP32" names="/model.6/m/MaxPool_output_0">
					<dim>1</dim>
					<dim>144</dim>
					<dim>3</dim>
					<dim>4</dim>
				</port>
				<port id="2" precision="I64">
					<dim>1</dim>
					<dim>144</dim>
					<dim>3</dim>
					<dim>4</dim>
				</port>
			</output>
		</layer>
		<layer id="309" name="/model.6/m_1/MaxPool" type="MaxPool" version="opset8">
			<data strides="1, 1" dilations="1, 1" pads_begin="2, 2" pads_end="2, 2" kernel="5, 5" rounding_type="floor" auto_pad="explicit" index_element_type="i64" axis="0" />
			<input>
				<port id="0" precision="FP32">
					<dim>1</dim>
					<dim>144</dim>
					<dim>3</dim>
					<dim>4</dim>
				</port>
			</input>
			<output>
				<port id="1" precision="FP32" names="/model.6/m_1/MaxPool_output_0">
					<dim>1</dim>
					<dim>144</dim>
					<dim>3</dim>
					<dim>4</dim>
				</port>
				<port id="2" precision="I64">
					<dim>1</dim>
					<dim>144</dim>
					<dim>3</dim>
					<dim>4</dim>
				</port>
			</output>
		</layer>
		<layer id="310" name="/model.6/m_2/MaxPool" type="MaxPool" version="opset8">
			<data strides="1, 1" dilations="1, 1" pads_begin="2, 2" pads_end="2, 2" kernel="5, 5" rounding_type="floor" auto_pad="explicit" index_element_type="i64" axis="0" />
			<input>
				<port id="0" precision="FP32">
					<dim>1</dim>
					<dim>144</dim>
					<dim>3</dim>
					<dim>4</dim>
				</port>
			</input>
			<output>
				<port id="1" precision="FP32" names="/model.6/m_2/MaxPool_output_0">
					<dim>1</dim>
					<dim>144</dim>
					<dim>3</dim>
					<dim>4</dim>
				</port>
				<port id="2" precision="I64">
					<dim>1</dim>
					<dim>144</dim>
					<dim>3</dim>
					<dim>4</dim>
				</port>
			</output>
		</layer>
		<layer id="311" name="/model.6/Concat" type="Concat" version="opset1">
			<data axis="1" />
			<input>
				<port id="0" precision="FP32">
					<dim>1</dim>
					<dim>144</dim>
					<dim>3</dim>
					<dim>4</dim>
				</port>
				<port id="1" precision="FP32">
					<dim>1</dim>
					<dim>144</dim>
					<dim>3</dim>
					<dim>4</dim>
				</port>
				<port id="2" precision="FP32">
					<dim>1</dim>
					<dim>144</dim>
					<dim>3</dim>
					<dim>4</dim>
				</port>
				<port id="3" precision="FP32">
					<dim>1</dim>
					<dim>144</dim>
					<dim>3</dim>
					<dim>4</dim>
				</port>
			</input>
			<output>
				<port id="4" precision="FP32" names="/model.6/Concat_output_0">
					<dim>1</dim>
					<dim>576</dim>
					<dim>3</dim>
					<dim>4</dim>
				</port>
			</output>
		</layer>
		<layer id="312" name="model.6.cv2.conv.weight" type="Const" version="opset1">
			<data element_type="f32" shape="192, 576, 1, 1" offset="1244664" size="442368" />
			<output>
				<port id="0" precision="FP32" names="model.6.cv2.conv.weight">
					<dim>192</dim>
					<dim>576</dim>
					<dim>1</dim>
					<dim>1</dim>
				</port>
			</output>
		</layer>
		<layer id="313" name="/model.6/cv2/conv/Conv/WithoutBiases" type="Convolution" version="opset1">
			<data strides="1, 1" dilations="1, 1" pads_begin="0, 0" pads_end="0, 0" auto_pad="explicit" />
			<input>
				<port id="0" precision="FP32">
					<dim>1</dim>
					<dim>576</dim>
					<dim>3</dim>
					<dim>4</dim>
				</port>
				<port id="1" precision="FP32">
					<dim>192</dim>
					<dim>576</dim>
					<dim>1</dim>
					<dim>1</dim>
				</port>
			</input>
			<output>
				<port id="2" precision="FP32">
					<dim>1</dim>
					<dim>192</dim>
					<dim>3</dim>
					<dim>4</dim>
				</port>
			</output>
		</layer>
		<layer id="314" name="Reshape_1487" type="Const" version="opset1">
			<data element_type="f32" shape="1, 192, 1, 1" offset="1687032" size="768" />
			<output>
				<port id="0" precision="FP32">
					<dim>1</dim>
					<dim>192</dim>
					<dim>1</dim>
					<dim>1</dim>
				</port>
			</output>
		</layer>
		<layer id="315" name="/model.6/cv2/conv/Conv" type="Add" version="opset1">
			<data auto_broadcast="numpy" />
			<input>
				<port id="0" precision="FP32">
					<dim>1</dim>
					<dim>192</dim>
					<dim>3</dim>
					<dim>4</dim>
				</port>
				<port id="1" precision="FP32">
					<dim>1</dim>
					<dim>192</dim>
					<dim>1</dim>
					<dim>1</dim>
				</port>
			</input>
			<output>
				<port id="2" precision="FP32" names="/model.6/cv2/conv/Conv_output_0">
					<dim>1</dim>
					<dim>192</dim>
					<dim>3</dim>
					<dim>4</dim>
				</port>
			</output>
		</layer>
		<layer id="316" name="/model.6/cv2/act/Mul" type="Swish" version="opset4">
			<input>
				<port id="0" precision="FP32">
					<dim>1</dim>
					<dim>192</dim>
					<dim>3</dim>
					<dim>4</dim>
				</port>
			</input>
			<output>
				<port id="1" precision="FP32" names="/model.6/cv2/act/Mul_output_0">
					<dim>1</dim>
					<dim>192</dim>
					<dim>3</dim>
					<dim>4</dim>
				</port>
			</output>
		</layer>
		<layer id="317" name="/model.7/Constant" type="Const" version="opset1">
			<data element_type="f32" shape="4" offset="1687800" size="16" />
			<output>
				<port id="0" precision="FP32" names="/model.7/Constant_output_0">
					<dim>4</dim>
				</port>
			</output>
		</layer>
		<layer id="318" name="/model.7/Resize" type="Interpolate" version="opset11">
…
					<dim>1</dim>
				</port>
			</input>
			<output>
				<port id="2" precision="I64" names="/model.19/Mul_1_output_0">
					<dim>1</dim>
				</port>
			</output>
		</layer>
		<layer id="560" name="ScatterUpdate_5069" type="ScatterUpdate" version="opset3">
			<input>
				<port id="0" precision="I64">
					<dim>2</dim>
				</port>
				<port id="1" precision="I64">
					<dim>1</dim>
				</port>
				<port id="2" precision="I64">
					<dim>1</dim>
				</port>
				<port id="3" precision="I32">
					<dim>1</dim>
				</port>
			</input>
			<output>
				<port id="4" precision="I64">
					<dim>2</dim>
				</port>
			</output>
		</layer>
		<layer id="561" name="Constant_5072" type="Const" version="opset1">
			<data element_type="i64" shape="2" offset="3924064" size="16" />
			<output>
				<port id="0" precision="I64">
					<dim>2</dim>
				</port>
			</output>
		</layer>
		<layer id="562" name="/model.19/Slice_1" type="StridedSlice" version="opset1">
			<data begin_mask="1, 0" end_mask="1, 0" new_axis_mask="" shrink_axis_mask="" ellipsis_mask="" />
			<input>
				<port id="0" precision="FP32">
					<dim>1</dim>
					<dim>4</dim>
					<dim>252</dim>
				</port>
				<port id="1" precision="I64">
					<dim>2</dim>
				</port>
				<port id="2" precision="I64">
					<dim>2</dim>
				</port>
				<port id="3" precision="I64">
					<dim>2</dim>
				</port>
			</input>
			<output>
				<port id="4" precision="FP32" names="/model.19/Slice_1_output_0">
					<dim>1</dim>
					<dim>2</dim>
					<dim>252</dim>
				</port>
			</output>
		</layer>
		<layer id="563" name="/model.19/Add_1" type="Add" version="opset1">
			<data auto_broadcast="numpy" />
			<input>
				<port id="0" precision="FP32">
					<dim>1</dim>
					<dim>2</dim>
					<dim>252</dim>
				</port>
				<port id="1" precision="FP32">
					<dim>1</dim>
					<dim>2</dim>
					<dim>252</dim>
				</port>
			</input>
			<output>
				<port id="2" precision="FP32" names="/model.19/Add_1_output_0">
					<dim>1</dim>
					<dim>2</dim>
					<dim>252</dim>
				</port>
			</output>
		</layer>
		<layer id="564" name="/model.19/Add_2" type="Add" version="opset1">
			<data auto_broadcast="numpy" />
			<input>
				<port id="0" precision="FP32">
					<dim>1</dim>
					<dim>2</dim>
					<dim>252</dim>
				</port>
				<port id="1" precision="FP32">
					<dim>1</dim>
					<dim>2</dim>
					<dim>252</dim>
				</port>
			</input>
			<output>
				<port id="2" precision="FP32" names="/model.19/Add_2_output_0">
					<dim>1</dim>
					<dim>2</dim>
					<dim>252</dim>
				</port>
			</output>
		</layer>
		<layer id="565" name="Constant_5360" type="Const" version="opset1">
			<data element_type="f32" shape="1, 1, 1" offset="5588" size="4" />
			<output>
				<port id="0" precision="FP32">
					<dim>1</dim>
					<dim>1</dim>
					<dim>1</dim>
				</port>
			</output>
		</layer>
		<layer id="566" name="/model.19/Div_1" type="Multiply" version="opset1">
			<data auto_broadcast="numpy" />
			<input>
				<port id="0" precision="FP32">
					<dim>1</dim>
					<dim>2</dim>
					<dim>252</dim>
				</port>
				<port id="1" precision="FP32">
					<dim>1</dim>
					<dim>1</dim>
					<dim>1</dim>
				</port>
			</input>
			<output>
				<port id="2" precision="FP32" names="/model.19/Div_1_output_0">
					<dim>1</dim>
					<dim>2</dim>
					<dim>252</dim>
				</port>
			</output>
		</layer>
		<layer id="567" name="/model.19/Sub_1" type="Subtract" version="opset1">
			<data auto_broadcast="numpy" />
			<input>
				<port id="0" precision="FP32">
					<dim>1</dim>
					<dim>2</dim>
					<dim>252</dim>
				</port>
				<port id="1" precision="FP32">
					<dim>1</dim>
					<dim>2</dim>
					<dim>252</dim>
				</port>
			</input>
			<output>
				<port id="2" precision="FP32" names="/model.19/Sub_1_output_0">
					<dim>1</dim>
					<dim>2</dim>
					<dim>252</dim>
				</port>
			</output>
		</layer>
		<layer id="568" name="/model.19/Concat_4" type="Concat" version="opset1">
			<data axis="1" />
			<input>
				<port id="0" precision="FP32">
					<dim>1</dim>
					<dim>2</dim>
					<dim>252</dim>
				</port>
				<port id="1" precision="FP32">
					<dim>1</dim>
					<dim>2</dim>
					<dim>252</dim>
				</port>
			</input>
			<output>
				<port id="2" precision="FP32" names="/model.19/Concat_4_output_0">
					<dim>1</dim>
					<dim>4</dim>
					<dim>252</dim>
				</port>
			</output>
		</layer>
		<layer id="569" name="Constant_5361" type="Const" version="opset1">
			<data element_type="f32" shape="1, 1, 252" offset="3924080" size="1008" />
			<output>
				<port id="0" precision="FP32">
					<dim>1</dim>
					<dim>1</dim>
					<dim>252</dim>
				</port>
			</output>
		</layer>
		<layer id="570" name="/model.19/Mul_2" type="Multiply" version="opset1">
			<data auto_broadcast="numpy" />
			<input>
				<port id="0" precision="FP32">
					<dim>1</dim>
					<dim>4</dim>
					<dim>252</dim>
				</port>
				<port id="1" precision="FP32">
					<dim>1</dim>
					<dim>1</dim>
					<dim>252</dim>
				</port>
			</input>
			<output>
				<port id="2" precision="FP32" names="/model.19/Mul_2_output_0">
					<dim>1</dim>
					<dim>4</dim>
					<dim>252</dim>
				</port>
			</output>
		</layer>
		<layer id="571" name="/model.19/Sigmoid" type="Sigmoid" version="opset1">
			<input>
				<port id="0" precision="FP32">
					<dim>1</dim>
					<dim>1</dim>
					<dim>252</dim>
				</port>
			</input>
			<output>
				<port id="1" precision="FP32" names="/model.19/Sigmoid_output_0">
					<dim>1</dim>
					<dim>1</dim>
					<dim>252</dim>
				</port>
			</output>
		</layer>
		<layer id="572" name="output0" type="Concat" version="opset1">
			<data axis="1" />
			<input>
				<port id="0" precision="FP32">
					<dim>1</dim>
					<dim>4</dim>
					<dim>252</dim>
				</port>
				<port id="1" precision="FP32">
					<dim>1</dim>
					<dim>1</dim>
					<dim>252</dim>
				</port>
			</input>
			<output>
				<port id="2" precision="FP32" names="output0">
					<dim>1</dim>
					<dim>5</dim>
					<dim>252</dim>
				</port>
			</output>
		</layer>
		<layer id="573" name="output0/sink_port_0" type="Result" version="opset1">
			<input>
				<port id="0" precision="FP32">
					<dim>1</dim>
					<dim>5</dim>
					<dim>252</dim>
				</port>
			</input>
		</layer>
	</layers>
	<edges>
		<edge from-layer="0" from-port="0" to-layer="3" to-port="0" />
		<edge from-layer="1" from-port="0" to-layer="551" to-port="0" />
		<edge from-layer="2" from-port="0" to-layer="3" to-port="1" />
		<edge from-layer="3" from-port="2" to-layer="5" to-port="0" />
		<edge from-layer="4" from-port="0" to-layer="5" to-port="1" />
		<edge from-layer="5" from-port="2" to-layer="6" to-port="0" />
		<edge from-layer="6" from-port="1" to-layer="8" to-port="0" />
		<edge from-layer="7" from-port="0" to-layer="8" to-port="1" />
		<edge from-layer="8" from-port="2" to-layer="10" to-port="0" />
		<edge from-layer="9" from-port="0" to-layer="10" to-port="1" />
		<edge from-layer="10" from-port="2" to-layer="11" to-port="0" />
		<edge from-layer="11" from-port="1" to-layer="13" to-port="0" />
		<edge from-layer="11" from-port="1" to-layer="26" to-port="0" />
		<edge from-layer="12" from-port="0" to-layer="13" to-port="1" />
		<edge from-layer="13" from-port="2" to-layer="15" to-port="0" />
		<edge from-layer="14" from-port="0" to-layer="15" to-port="1" />
		<edge from-layer="15" from-port="2" to-layer="17" to-port="0" />
		<edge from-layer="16" from-port="0" to-layer="17" to-port="1" />
		<edge from-layer="17" from-port="2" to-layer="18" to-port="0" />
		<edge from-layer="18" from-port="1" to-layer="20" to-port="0" />
		<edge from-layer="19" from-port="0" to-layer="20" to-port="1" />
		<edge from-layer="20" from-port="2" to-layer="22" to-port="0" />
		<edge from-layer="21" from-port="0" to-layer="22" to-port="1" />
		<edge from-layer="22" from-port="2" to-layer="25" to-port="0" />
		<edge from-layer="23" from-port="0" to-layer="25" to-port="1" />
		<edge from-layer="24" from-port="0" to-layer="25" to-port="2" />
		<edge from-layer="25" from-port="3" to-layer="26" to-port="1" />
		<edge from-layer="26" from-port="2" to-layer="28" to-port="0" />
		<edge from-layer="27" from-port="0" to-layer="28" to-port="1" />
		<edge from-layer="28" from-port="2" to-layer="30" to-port="0" />
		<edge from-layer="29" from-port="0" to-layer="30" to-port="1" />
		<edge from-layer="30" from-port="2" to-layer="32" to-port="0" />
		<edge from-layer="31" from-port="0" to-layer="32" to-port="1" />
		<edge from-layer="32" from-port="2" to-layer="34" to-port="0" />
		<edge from-layer="33" from-port="0" to-layer="34" to-port="1" />
		<edge from-layer="34" from-port="2" to-layer="35" to-port="0" />
		<edge from-layer="35" from-port="1" to-layer="37" to-port="0" />
		<edge from-layer="36" from-port="0" to-layer="37" to-port="1" />
		<edge from-layer="37" from-port="2" to-layer="39" to-port="0" />
		<edge from-layer="38" from-port="0" to-layer="39" to-port="1" />
		<edge from-layer="39" from-port="2" to-layer="40" to-port="0" />
		<edge from-layer="40" from-port="1" to-layer="42" to-port="0" />
		<edge from-layer="41" from-port="0" to-layer="42" to-port="1" />
		<edge from-layer="42" from-port="2" to-layer="44" to-port="0" />
		<edge from-layer="43" from-port="0" to-layer="44" to-port="1" />
		<edge from-layer="44" from-port="2" to-layer="46" to-port="0" />
		<edge from-layer="44" from-port="2" to-layer="59" to-port="1" />
		<edge from-layer="45" from-port="0" to-layer="46" to-port="1" />
		<edge from-layer="46" from-port="2" to-layer="48" to-port="0" />
		<edge from-layer="47" from-port="0" to-layer="48" to-port="1" />
		<edge from-layer="48" from-port="2" to-layer="49" to-port="0" />
		<edge from-layer="49" from-port="1" to-layer="51" to-port="0" />
		<edge from-layer="50" from-port="0" to-layer="51" to-port="1" />
		<edge from-layer="51" from-port="2" to-layer="53" to-port="0" />
		<edge from-layer="52" from-port="0" to-layer="53" to-port="1" />
		<edge from-layer="53" from-port="2" to-layer="54" to-port="0" />
		<edge from-layer="54" from-port="1" to-layer="56" to-port="0" />
		<edge from-layer="55" from-port="0" to-layer="56" to-port="1" />
		<edge from-layer="56" from-port="2" to-layer="58" to-port="0" />
		<edge from-layer="57" from-port="0" to-layer="58" to-port="1" />
		<edge from-layer="58" from-port="2" to-layer="59" to-port="0" />
		<edge from-layer="59" from-port="2" to-layer="61" to-port="0" />
		<edge from-layer="59" from-port="2" to-layer="346" to-port="1" />
		<edge from-layer="60" from-port="0" to-layer="61" to-port="1" />
		<edge from-layer="61" from-port="2" to-layer="63" to-port="0" />
		<edge from-layer="62" from-port="0" to-layer="63" to-port="1" />
		<edge from-layer="63" from-port="2" to-layer="64" to-port="0" />
		<edge from-layer="64" from-port="1" to-layer="66" to-port="0" />
		<edge from-layer="65" from-port="0" to-layer="66" to-port="1" />
		<edge from-layer="66" from-port="2" to-layer="68" to-port="0" />
		<edge from-layer="67" from-port="0" to-layer="68" to-port="1" />
		<edge from-layer="68" from-port="2" to-layer="69" to-port="0" />
		<edge from-layer="69" from-port="1" to-layer="84" to-port="0" />
		<edge from-layer="69" from-port="1" to-layer="71" to-port="0" />
		<edge from-layer="70" from-port="0" to-layer="71" to-port="1" />
		<edge from-layer="71" from-port="2" to-layer="73" to-port="0" />
		<edge from-layer="72" from-port="0" to-layer="73" to-port="1" />
		<edge from-layer="73" from-port="2" to-layer="75" to-port="0" />
		<edge from-layer="74" from-port="0" to-layer="75" to-port="1" />
		<edge from-layer="75" from-port="2" to-layer="76" to-port="0" />
		<edge from-layer="76" from-port="1" to-layer="78" to-port="0" />
		<edge from-layer="77" from-port="0" to-layer="78" to-port="1" />
		<edge from-layer="78" from-port="2" to-layer="80" to-port="0" />
		<edge from-layer="79" from-port="0" to-layer="80" to-port="1" />
		<edge from-layer="80" from-port="2" to-layer="83" to-port="0" />
		<edge from-layer="81" from-port="0" to-layer="83" to-port="1" />
		<edge from-layer="82" from-port="0" to-layer="83" to-port="2" />
		<edge from-layer="83" from-port="3" to-layer="84" to-port="1" />
		<edge from-layer="84" from-port="2" to-layer="86" to-port="0" />
		<edge from-layer="85" from-port="0" to-layer="86" to-port="1" />
		<edge from-layer="86" from-port="2" to-layer="88" to-port="0" />
		<edge from-layer="87" from-port="0" to-layer="88" to-port="1" />
		<edge from-layer="88" from-port="2" to-layer="90" to-port="0" />
		<edge from-layer="88" from-port="2" to-layer="118" to-port="1" />
		<edge from-layer="89" from-port="0" to-layer="90" to-port="1" />
		<edge from-layer="90" from-port="2" to-layer="92" to-port="0" />
		<edge from-layer="91" from-port="0" to-layer="92" to-port="1" />
		<edge from-layer="92" from-port="2" to-layer="93" to-port="0" />
		<edge from-layer="93" from-port="1" to-layer="95" to-port="0" />
		<edge from-layer="94" from-port="0" to-layer="95" to-port="1" />
		<edge from-layer="95" from-port="2" to-layer="97" to-port="0" />
		<edge from-layer="96" from-port="0" to-layer="97" to-port="1" />
		<edge from-layer="97" from-port="2" to-layer="98" to-port="0" />
		<edge from-layer="98" from-port="1" to-layer="100" to-port="0" />
		<edge from-layer="98" from-port="1" to-layer="113" to-port="0" />
		<edge from-layer="99" from-port="0" to-layer="100" to-port="1" />
		<edge from-layer="100" from-port="2" to-layer="102" to-port="0" />
		<edge from-layer="101" from-port="0" to-layer="102" to-port="1" />
		<edge from-layer="102" from-port="2" to-layer="104" to-port="0" />
		<edge from-layer="103" from-port="0" to-layer="104" to-port="1" />
		<edge from-layer="104" from-port="2" to-layer="105" to-port="0" />
		<edge from-layer="105" from-port="1" to-layer="107" to-port="0" />
		<edge from-layer="106" from-port="0" to-layer="107" to-port="1" />
		<edge from-layer="107" from-port="2" to-layer="109" to-port="0" />
		<edge from-layer="108" from-port="0" to-layer="109" to-port="1" />
		<edge from-layer="109" from-port="2" to-layer="112" to-port="0" />
		<edge from-layer="110" from-port="0" to-layer="112" to-port="1" />
		<edge from-layer="111" from-port="0" to-layer="112" to-port="2" />
		<edge from-layer="112" from-port="3" to-layer="113" to-port="1" />
		<edge from-layer="113" from-port="2" to-layer="115" to-port="0" />
		<edge from-layer="114" from-port="0" to-layer="115" to-port="1" />
		<edge from-layer="115" from-port="2" to-layer="117" to-port="0" />
		<edge from-layer="116" from-port="0" to-layer="117" to-port="1" />
		<edge from-layer="117" from-port="2" to-layer="118" to-port="0" />
		<edge from-layer="118" from-port="2" to-layer="120" to-port="0" />
		<edge from-layer="118" from-port="2" to-layer="148" to-port="1" />
		<edge from-layer="119" from-port="0" to-layer="120" to-port="1" />
		<edge from-layer="120" from-port="2" to-layer="122" to-port="0" />
		<edge from-layer="121" from-port="0" to-layer="122" to-port="1" />
		<edge from-layer="122" from-port="2" to-layer="123" to-port="0" />
		<edge from-layer="123" from-port="1" to-layer="125" to-port="0" />
		<edge from-layer="124" from-port="0" to-layer="125" to-port="1" />
		<edge from-layer="125" from-port="2" to-layer="127" to-port="0" />
		<edge from-layer="126" from-port="0" to-layer="127" to-port="1" />
		<edge from-layer="127" from-port="2" to-layer="128" to-port="0" />
		<edge from-layer="128" from-port="1" to-layer="130" to-port="0" />
		<edge from-layer="128" from-port="1" to-layer="143" to-port="0" />
		<edge from-layer="129" from-port="0" to-layer="130" to-port="1" />
		<edge from-layer="130" from-port="2" to-layer="132" to-port="0" />
		<edge from-layer="131" from-port="0" to-layer="132" to-port="1" />
		<edge from-layer="132" from-port="2" to-layer="134" to-port="0" />
		<edge from-layer="133" from-port="0" to-layer="134" to-port="1" />
		<edge from-layer="134" from-port="2" to-layer="135" to-port="0" />
		<edge from-layer="135" from-port="1" to-layer="137" to-port="0" />
		<edge from-layer="136" from-port="0" to-layer="137" to-port="1" />
		<edge from-layer="137" from-port="2" to-layer="139" to-port="0" />
		<edge from-layer="138" from-port="0" to-layer="139" to-port="1" />
		<edge from-layer="139" from-port="2" to-layer="142" to-port="0" />
		<edge from-layer="140" from-port="0" to-layer="142" to-port="1" />
		<edge from-layer="141" from-port="0" to-layer="142" to-port="2" />
		<edge from-layer="142" from-port="3" to-layer="143" to-port="1" />
		<edge from-layer="143" from-port="2" to-layer="145" to-port="0" />
		<edge from-layer="144" from-port="0" to-layer="145" to-port="1" />
		<edge from-layer="145" from-port="2" to-layer="147" to-port="0" />
		<edge from-layer="146" from-port="0" to-layer="147" to-port="1" />
		<edge from-layer="147" from-port="2" to-layer="148" to-port="0" />
		<edge from-layer="148" from-port="2" to-layer="150" to-port="0" />
		<edge from-layer="148" from-port="2" to-layer="178" to-port="1" />
		<edge from-layer="149" from-port="0" to-layer="150" to-port="1" />
		<edge from-layer="150" from-port="2" to-layer="152" to-port="0" />
		<edge from-layer="151" from-port="0" to-layer="152" to-port="1" />
		<edge from-layer="152" from-port="2" to-layer="153" to-port="0" />
		<edge from-layer="153" from-port="1" to-layer="155" to-port="0" />
		<edge from-layer="154" from-port="0" to-layer="155" to-port="1" />
		<edge from-layer="155" from-port="2" to-layer="157" to-port="0" />
		<edge from-layer="156" from-port="0" to-layer="157" to-port="1" />
		<edge from-layer="157" from-port="2" to-layer="158" to-port="0" />
		<edge from-layer="158" from-port="1" to-layer="160" to-port="0" />
		<edge from-layer="158" from-port="1" to-layer="173" to-port="0" />
		<edge from-layer="159" from-port="0" to-layer="160" to-port="1" />
		<edge from-layer="160" from-port="2" to-layer="162" to-port="0" />
		<edge from-layer="161" from-port="0" to-layer="162" to-port="1" />
		<edge from-layer="162" from-port="2" to-layer="164" to-port="0" />
		<edge from-layer="163" from-port="0" to-layer="164" to-port="1" />
		<edge from-layer="164" from-port="2" to-layer="165" to-port="0" />
		<edge from-layer="165" from-port="1" to-layer="167" to-port="0" />
		<edge from-layer="166" from-port="0" to-layer="167" to-port="1" />
		<edge from-layer="167" from-port="2" to-layer="169" to-port="0" />
		<edge from-layer="168" from-port="0" to-layer="169" to-port="1" />
		<edge from-layer="169" from-port="2" to-layer="172" to-port="0" />
		<edge from-layer="170" from-port="0" to-layer="172" to-port="1" />
		<edge from-layer="171" from-port="0" to-layer="172" to-port="2" />
		<edge from-layer="172" from-port="3" to-layer="173" to-port="1" />
		<edge from-layer="173" from-port="2" to-layer="175" to-port="0" />
		<edge from-layer="174" from-port="0" to-layer="175" to-port="1" />
		<edge from-layer="175" from-port="2" to-layer="177" to-port="0" />
		<edge from-layer="176" from-port="0" to-layer="177" to-port="1" />
		<edge from-layer="177" from-port="2" to-layer="178" to-port="0" />
		<edge from-layer="178" from-port="2" to-layer="180" to-port="0" />
		<edge from-layer="178" from-port="2" to-layer="208" to-port="1" />
		<edge from-layer="179" from-port="0" to-layer="180" to-port="1" />
		<edge from-layer="180" from-port="2" to-layer="182" to-port="0" />
		<edge from-layer="181" from-port="0" to-layer="182" to-port="1" />
		<edge from-layer="182" from-port="2" to-layer="183" to-port="0" />
		<edge from-layer="183" from-port="1" to-layer="185" to-port="0" />
		<edge from-layer="184" from-port="0" to-layer="185" to-port="1" />
		<edge from-layer="185" from-port="2" to-layer="187" to-port="0" />
		<edge from-layer="186" from-port="0" to-layer="187" to-port="1" />
		<edge from-layer="187" from-port="2" to-layer="188" to-port="0" />
		<edge from-layer="188" from-port="1" to-layer="190" to-port="0" />
		<edge from-layer="188" from-port="1" to-layer="203" to-port="0" />
		<edge from-layer="189" from-port="0" to-layer="190" to-port="1" />
		<edge from-layer="190" from-port="2" to-layer="192" to-port="0" />
		<edge from-layer="191" from-port="0" to-layer="192" to-port="1" />
		<edge from-layer="192" from-port="2" to-layer="194" to-port="0" />
		<edge from-layer="193" from-port="0" to-layer="194" to-port="1" />
		<edge from-layer="194" from-port="2" to-layer="195" to-port="0" />
		<edge from-layer="195" from-port="1" to-layer="197" to-port="0" />
		<edge from-layer="196" from-port="0" to-layer="197" to-port="1" />
		<edge from-layer="197" from-port="2" to-layer="199" to-port="0" />
		<edge from-layer="198" from-port="0" to-layer="199" to-port="1" />
		<edge from-layer="199" from-port="2" to-layer="202" to-port="0" />
		<edge from-layer="200" from-port="0" to-layer="202" to-port="1" />
		<edge from-layer="201" from-port="0" to-layer="202" to-port="2" />
		<edge from-layer="202" from-port="3" to-layer="203" to-port="1" />
		<edge from-layer="203" from-port="2" to-layer="205" to-port="0" />
		<edge from-layer="204" from-port="0" to-layer="205" to-port="1" />
		<edge from-layer="205" from-port="2" to-layer="207" to-port="0" />
		<edge from-layer="206" from-port="0" to-layer="207" to-port="1" />
		<edge from-layer="207" from-port="2" to-layer="208" to-port="0" />
		<edge from-layer="208" from-port="2" to-layer="408" to-port="1" />
		<edge from-layer="208" from-port="2" to-layer="319" to-port="1" />
		<edge from-layer="208" from-port="2" to-layer="210" to-port="0" />
		<edge from-layer="209" from-port="0" to-layer="210" to-port="1" />
		<edge from-layer="210" from-port="2" to-layer="212" to-port="0" />
		<edge from-layer="211" from-port="0" to-layer="212" to-port="1" />
		<edge from-layer="212" from-port="2" to-layer="213" to-port="0" />
		<edge from-layer="213" from-port="1" to-layer="215" to-port="0" />
		<edge from-layer="214" from-port="0" to-layer="215" to-port="1" />
		<edge from-layer="215" from-port="2" to-layer="217" to-port="0" />
		<edge from-layer="216" from-port="0" to-layer="217" to-port="1" />
		<edge from-layer="217" from-port="2" to-layer="218" to-port="0" />
		<edge from-layer="218" from-port="1" to-layer="220" to-port="0" />
		<edge from-layer="218" from-port="1" to-layer="233" to-port="0" />
		<edge from-layer="219" from-port="0" to-layer="220" to-port="1" />
		<edge from-layer="220" from-port="2" to-layer="222" to-port="0" />
		<edge from-layer="221" from-port="0" to-layer="222" to-port="1" />
		<edge from-layer="222" from-port="2" to-layer="224" to-port="0" />
		<edge from-layer="223" from-port="0" to-layer="224" to-port="1" />
		<edge from-layer="224" from-port="2" to-layer="225" to-port="0" />
		<edge from-layer="225" from-port="1" to-layer="227" to-port="0" />
		<edge from-layer="226" from-port="0" to-layer="227" to-port="1" />
		<edge from-layer="227" from-port="2" to-layer="229" to-port="0" />
		<edge from-layer="228" from-port="0" to-layer="229" to-port="1" />
		<edge from-layer="229" from-port="2" to-layer="232" to-port="0" />
		<edge from-layer="230" from-port="0" to-layer="232" to-port="1" />
		<edge from-layer="231" from-port="0" to-layer="232" to-port="2" />
		<edge from-layer="232" from-port="3" to-layer="233" to-port="1" />
		<edge from-layer="233" from-port="2" to-layer="235" to-port="0" />
		<edge from-layer="234" from-port="0" to-layer="235" to-port="1" />
		<edge from-layer="235" from-port="2" to-layer="237" to-port="0" />
		<edge from-layer="236" from-port="0" to-layer="237" to-port="1" />
		<edge from-layer="237" from-port="2" to-layer="239" to-port="0" />
		<edge from-layer="237" from-port="2" to-layer="267" to-port="1" />
		<edge from-layer="238" from-port="0" to-layer="239" to-port="1" />
		<edge from-layer="239" from-port="2" to-layer="241" to-port="0" />
		<edge from-layer="240" from-port="0" to-layer="241" to-port="1" />
		<edge from-layer="241" from-port="2" to-layer="242" to-port="0" />
		<edge from-layer="242" from-port="1" to-layer="244" to-port="0" />
		<edge from-layer="243" from-port="0" to-layer="244" to-port="1" />
		<edge from-layer="244" from-port="2" to-layer="246" to-port="0" />
		<edge from-layer="245" from-port="0" to-layer="246" to-port="1" />
		<edge from-layer="246" from-port="2" to-layer="247" to-port="0" />
		<edge from-layer="247" from-port="1" to-layer="249" to-port="0" />
		<edge from-layer="247" from-port="1" to-layer="262" to-port="0" />
		<edge from-layer="248" from-port="0" to-layer="249" to-port="1" />
		<edge from-layer="249" from-port="2" to-layer="251" to-port="0" />
		<edge from-layer="250" from-port="0" to-layer="251" to-port="1" />
		<edge from-layer="251" from-port="2" to-layer="253" to-port="0" />
		<edge from-layer="252" from-port="0" to-layer="253" to-port="1" />
		<edge from-layer="253" from-port="2" to-layer="254" to-port="0" />
		<edge from-layer="254" from-port="1" to-layer="256" to-port="0" />
		<edge from-layer="255" from-port="0" to-layer="256" to-port="1" />
		<edge from-layer="256" from-port="2" to-layer="258" to-port="0" />
		<edge from-layer="257" from-port="0" to-layer="258" to-port="1" />
		<edge from-layer="258" from-port="2" to-layer="261" to-port="0" />
		<edge from-layer="259" from-port="0" to-layer="261" to-port="1" />
		<edge from-layer="260" from-port="0" to-layer="261" to-port="2" />
		<edge from-layer="261" from-port="3" to-layer="262" to-port="1" />
		<edge from-layer="262" from-port="2" to-layer="264" to-port="0" />
		<edge from-layer="263" from-port="0" to-layer="264" to-port="1" />
		<edge from-layer="264" from-port="2" to-layer="266" to-port="0" />
		<edge from-layer="265" from-port="0" to-layer="266" to-port="1" />
		<edge from-layer="266" from-port="2" to-layer="267" to-port="0" />
		<edge from-layer="267" from-port="2" to-layer="269" to-port="0" />
		<edge from-layer="267" from-port="2" to-layer="297" to-port="1" />
		<edge from-layer="268" from-port="0" to-layer="269" to-port="1" />
		<edge from-layer="269" from-port="2" to-layer="271" to-port="0" />
		<edge from-layer="270" from-port="0" to-layer="271" to-port="1" />
		<edge from-layer="271" from-port="2" to-layer="272" to-port="0" />
		<edge from-layer="272" from-port="1" to-layer="274" to-port="0" />
		<edge from-layer="273" from-port="0" to-layer="274" to-port="1" />
		<edge from-layer="274" from-port="2" to-layer="276" to-port="0" />
		<edge from-layer="275" from-port="0" to-layer="276" to-port="1" />
		<edge from-layer="276" from-port="2" to-layer="277" to-port="0" />
		<edge from-layer="277" from-port="1" to-layer="279" to-port="0" />
		<edge from-layer="277" from-port="1" to-layer="292" to-port="0" />
		<edge from-layer="278" from-port="0" to-layer="279" to-port="1" />
		<edge from-layer="279" from-port="2" to-layer="281" to-port="0" />
		<edge from-layer="280" from-port="0" to-layer="281" to-port="1" />
		<edge from-layer="281" from-port="2" to-layer="283" to-port="0" />
		<edge from-layer="282" from-port="0" to-layer="283" to-port="1" />
		<edge from-layer="283" from-port="2" to-layer="284" to-port="0" />
		<edge from-layer="284" from-port="1" to-layer="286" to-port="0" />
		<edge from-layer="285" from-port="0" to-layer="286" to-port="1" />
		<edge from-layer="286" from-port="2" to-layer="288" to-port="0" />
		<edge from-layer="287" from-port="0" to-layer="288" to-port="1" />
		<edge from-layer="288" from-port="2" to-layer="291" to-port="0" />
		<edge from-layer="289" from-port="0" to-layer="291" to-port="1" />
		<edge from-layer="290" from-port="0" to-layer="291" to-port="2" />
		<edge from-layer="291" from-port="3" to-layer="292" to-port="1" />
		<edge from-layer="292" from-port="2" to-layer="294" to-port="0" />
		<edge from-layer="293" from-port="0" to-layer="294" to-port="1" />
		<edge from-layer="294" from-port="2" to-layer="296" to-port="0" />
		<edge from-layer="295" from-port="0" to-layer="296" to-port="1" />
		<edge from-layer="296" from-port="2" to-layer="297" to-port="0" />
		<edge from-layer="297" from-port="2" to-layer="299" to-port="0" />
		<edge from-layer="298" from-port="0" to-layer="299" to-port="1" />
		<edge from-layer="299" from-port="2" to-layer="301" to-port="0" />
		<edge from-layer="300" from-port="0" to-layer="301" to-port="1" />
		<edge from-layer="301" from-port="2" to-layer="302" to-port="0" />
		<edge from-layer="302" from-port="1" to-layer="304" to-port="0" />
		<edge from-layer="303" from-port="0" to-layer="304" to-port="1" />
		<edge from-layer="304" from-port="2" to-layer="306" to-port="0" />
		<edge from-layer="305" from-port="0" to-layer="306" to-port="1" />
		<edge from-layer="306" from-port="2" to-layer="307" to-port="0" />
		<edge from-layer="307" from-port="1" to-layer="311" to-port="0" />
		<edge from-layer="307" from-port="1" to-layer="308" to-port="0" />
		<edge from-layer="308" from-port="1" to-layer="309" to-port="0" />
		<edge from-layer="308" from-port="1" to-layer="311" to-port="1" />
		<edge from-layer="309" from-port="1" to-layer="310" to-port="0" />
		<edge from-layer="309" from-port="1" to-layer="311" to-port="2" />
		<edge from-layer="310" from-port="1" to-layer="311" to-port="3" />
		<edge from-layer="311" from-port="4" to-layer="313" to-port="0" />
		<edge from-layer="312" from-port="0" to-layer="313" to-port="1" />
		<edge from-layer="313" from-port="2" to-layer="315" to-port="0" />
		<edge from-layer="314" from-port="0" to-layer="315" to-port="1" />
		<edge from-layer="315" from-port="2" to-layer="316" to-port="0" />
		<edge from-layer="316" from-port="1" to-layer="318" to-port="0" />
		<edge from-layer="316" from-port="1" to-layer="468" to-port="1" />
		<edge from-layer="317" from-port="0" to-layer="318" to-port="1" />
		<edge from-layer="318" from-port="2" to-layer="319" to-port="0" />
		<edge from-layer="319" from-port="2" to-layer="321" to-port="0" />
		<edge from-layer="320" from-port="0" to-layer="321" to-port="1" />
		<edge from-layer="321" from-port="2" to-layer="323" to-port="0" />
		<edge from-layer="322" from-port="0" to-layer="323" to-port="1" />
		<edge from-layer="323" from-port="2" to-layer="324" to-port="0" />
		<edge from-layer="324" from-port="1" to-layer="327" to-port="0" />
		<edge from-layer="325" from-port="0" to-layer="327" to-port="1" />
		<edge from-layer="326" from-port="0" to-layer="327" to-port="2" />
		<edge from-layer="326" from-port="0" to-layer="475" to-port="2" />
		<edge from-layer="327" from-port="4" to-layer="329" to-port="0" />
		<edge from-layer="327" from-port="4" to-layer="338" to-port="1" />
		<edge from-layer="327" from-port="3" to-layer="338" to-port="0" />
		<edge from-layer="328" from-port="0" to-layer="329" to-port="1" />
		<edge from-layer="329" from-port="2" to-layer="331" to-port="0" />
		<edge from-layer="330" from-port="0" to-layer="331" to-port="1" />
		<edge from-layer="331" from-port="2" to-layer="332" to-port="0" />
		<edge from-layer="332" from-port="1" to-layer="334" to-port="0" />
		<edge from-layer="333" from-port="0" to-layer="334" to-port="1" />
		<edge from-layer="334" from-port="2" to-layer="336" to-port="0" />
		<edge from-layer="335" from-port="0" to-layer="336" to-port="1" />
		<edge from-layer="336" from-port="2" to-layer="337" to-port="0" />
		<edge from-layer="337" from-port="1" to-layer="338" to-port="2" />
		<edge from-layer="338" from-port="3" to-layer="340" to-port="0" />
		<edge from-layer="339" from-port="0" to-layer="340" to-port="1" />
		<edge from-layer="340" from-port="2" to-layer="342" to-port="0" />
		<edge from-layer="341" from-port="0" to-layer="342" to-port="1" />
		<edge from-layer="342" from-port="2" to-layer="343" to-port="0" />
		<edge from-layer="343" from-port="1" to-layer="345" to-port="0" />
		<edge from-layer="344" from-port="0" to-layer="345" to-port="1" />
		<edge from-layer="345" from-port="2" to-layer="346" to-port="0" />
		<edge from-layer="346" from-port="2" to-layer="348" to-port="0" />
		<edge from-layer="347" from-port="0" to-layer="348" to-port="1" />
		<edge from-layer="348" from-port="2" to-layer="350" to-port="0" />
		<edge from-layer="349" from-port="0" to-layer="350" to-port="1" />
		<edge from-layer="350" from-port="2" to-layer="351" to-port="0" />
		<edge from-layer="351" from-port="1" to-layer="354" to-port="0" />
		<edge from-layer="352" from-port="0" to-layer="354" to-port="1" />
		<edge from-layer="353" from-port="0" to-layer="415" to-port="2" />
		<edge from-layer="353" from-port="0" to-layer="354" to-port="2" />
		<edge from-layer="354" from-port="4" to-layer="365" to-port="0" />
		<edge from-layer="354" from-port="4" to-layer="356" to-port="0" />
		<edge from-layer="354" from-port="3" to-layer="366" to-port="0" />
		<edge from-layer="354" from-port="4" to-layer="366" to-port="1" />
		<edge from-layer="355" from-port="0" to-layer="356" to-port="1" />
		<edge from-layer="356" from-port="2" to-layer="358" to-port="0" />
		<edge from-layer="357" from-port="0" to-layer="358" to-port="1" />
		<edge from-layer="358" from-port="2" to-layer="359" to-port="0" />
		<edge from-layer="359" from-port="1" to-layer="361" to-port="0" />
		<edge from-layer="360" from-port="0" to-layer="361" to-port="1" />
		<edge from-layer="361" from-port="2" to-layer="363" to-port="0" />
		<edge from-layer="362" from-port="0" to-layer="363" to-port="1" />
		<edge from-layer="363" from-port="2" to-layer="364" to-port="0" />
		<edge from-layer="364" from-port="1" to-layer="365" to-port="1" />
		<edge from-layer="365" from-port="2" to-layer="366" to-port="2" />
		<edge from-layer="366" from-port="3" to-layer="368" to-port="0" />
		<edge from-layer="367" from-port="0" to-layer="368" to-port="1" />
		<edge from-layer="368" from-port="2" to-layer="370" to-port="0" />
		<edge from-layer="369" from-port="0" to-layer="370" to-port="1" />
		<edge from-layer="370" from-port="2" to-layer="371" to-port="0" />
		<edge from-layer="371" from-port="1" to-layer="373" to-port="0" />
		<edge from-layer="371" from-port="1" to-layer="404" to-port="0" />
		<edge from-layer="371" from-port="1" to-layer="387" to-port="0" />
		<edge from-layer="372" from-port="0" to-layer="373" to-port="1" />
		<edge from-layer="373" from-port="2" to-layer="375" to-port="0" />
		<edge from-layer="374" from-port="0" to-layer="375" to-port="1" />
		<edge from-layer="375" from-port="2" to-layer="376" to-port="0" />
		<edge from-layer="376" from-port="1" to-layer="378" to-port="0" />
		<edge from-layer="377" from-port="0" to-layer="378" to-port="1" />
		<edge from-layer="378" from-port="2" to-layer="380" to-port="0" />
		<edge from-layer="379" from-port="0" to-layer="380" to-port="1" />
		<edge from-layer="380" from-port="2" to-layer="381" to-port="0" />
		<edge from-layer="381" from-port="1" to-layer="383" to-port="0" />
		<edge from-layer="382" from-port="0" to-layer="383" to-port="1" />
		<edge from-layer="383" from-port="2" to-layer="385" to-port="0" />
		<edge from-layer="384" from-port="0" to-layer="385" to-port="1" />
		<edge from-layer="385" from-port="2" to-layer="400" to-port="0" />
		<edge from-layer="386" from-port="0" to-layer="387" to-port="1" />
		<edge from-layer="387" from-port="2" to-layer="389" to-port="0" />
		<edge from-layer="388" from-port="0" to-layer="389" to-port="1" />
		<edge from-layer="389" from-port="2" to-layer="390" to-port="0" />
		<edge from-layer="390" from-port="1" to-layer="392" to-port="0" />
		<edge from-layer="391" from-port="0" to-layer="392" to-port="1" />
		<edge from-layer="392" from-port="2" to-layer="394" to-port="0" />
		<edge from-layer="393" from-port="0" to-layer="394" to-port="1" />
		<edge from-layer="394" from-port="2" to-layer="395" to-port="0" />
		<edge from-layer="395" from-port="1" to-layer="397" to-port="0" />
		<edge from-layer="396" from-port="0" to-layer="397" to-port="1" />
		<edge from-layer="397" from-port="2" to-layer="399" to-port="0" />
		<edge from-layer="398" from-port="0" to-layer="399" to-port="1" />
		<edge from-layer="399" from-port="2" to-layer="400" to-port="1" />
		<edge from-layer="400" from-port="2" to-layer="402" to-port="0" />
		<edge from-layer="401" from-port="0" to-layer="402" to-port="1" />
		<edge from-layer="402" from-port="2" to-layer="523" to-port="0" />
		<edge from-layer="403" from-port="0" to-layer="404" to-port="1" />
		<edge from-layer="404" from-port="2" to-layer="406" to-port="0" />
		<edge from-layer="405" from-port="0" to-layer="406" to-port="1" />
		<edge from-layer="406" from-port="2" to-layer="407" to-port="0" />
		<edge from-layer="407" from-port="1" to-layer="408" to-port="0" />
		<edge from-layer="408" from-port="2" to-layer="410" to-port="0" />
		<edge from-layer="409" from-port="0" to-layer="410" to-port="1" />
		<edge from-layer="410" from-port="2" to-layer="412" to-port="0" />
		<edge from-layer="411" from-port="0" to-layer="412" to-port="1" />
		<edge from-layer="412" from-port="2" to-layer="413" to-port="0" />
		<edge from-layer="413" from-port="1" to-layer="415" to-port="0" />
		<edge from-layer="414" from-port="0" to-layer="415" to-port="1" />
		<edge from-layer="415" from-port="4" to-layer="426" to-port="1" />
		<edge from-layer="415" from-port="4" to-layer="417" to-port="0" />
		<edge from-layer="415" from-port="3" to-layer="426" to-port="0" />
		<edge from-layer="416" from-port="0" to-layer="417" to-port="1" />
		<edge from-layer="417" from-port="2" to-layer="419" to-port="0" />
		<edge from-layer="418" from-port="0" to-layer="419" to-port="1" />
		<edge from-layer="419" from-port="2" to-layer="420" to-port="0" />
		<edge from-layer="420" from-port="1" to-layer="422" to-port="0" />
		<edge from-layer="421" from-port="0" to-layer="422" to-port="1" />
		<edge from-layer="422" from-port="2" to-layer="424" to-port="0" />
		<edge from-layer="423" from-port="0" to-layer="424" to-port="1" />
		<edge from-layer="424" from-port="2" to-layer="425" to-port="0" />
		<edge from-layer="425" from-port="1" to-layer="426" to-port="2" />
		<edge from-layer="426" from-port="3" to-layer="428" to-port="0" />
		<edge from-layer="427" from-port="0" to-layer="428" to-port="1" />
		<edge from-layer="428" from-port="2" to-layer="430" to-port="0" />
		<edge from-layer="429" from-port="0" to-layer="430" to-port="1" />
		<edge from-layer="430" from-port="2" to-layer="431" to-port="0" />
		<edge from-layer="431" from-port="1" to-layer="433" to-port="0" />
		<edge from-layer="431" from-port="1" to-layer="464" to-port="0" />
		<edge from-layer="431" from-port="1" to-layer="447" to-port="0" />
		<edge from-layer="432" from-port="0" to-layer="433" to-port="1" />
		<edge from-layer="433" from-port="2" to-layer="435" to-port="0" />
		<edge from-layer="434" from-port="0" to-layer="435" to-port="1" />
		<edge from-layer="435" from-port="2" to-layer="436" to-port="0" />
		<edge from-layer="436" from-port="1" to-layer="438" to-port="0" />
		<edge from-layer="437" from-port="0" to-layer="438" to-port="1" />
		<edge from-layer="438" from-port="2" to-layer="440" to-port="0" />
		<edge from-layer="439" from-port="0" to-layer="440" to-port="1" />
		<edge from-layer="440" from-port="2" to-layer="441" to-port="0" />
		<edge from-layer="441" from-port="1" to-layer="443" to-port="0" />
		<edge from-layer="442" from-port="0" to-layer="443" to-port="1" />
		<edge from-layer="443" from-port="2" to-layer="445" to-port="0" />
		<edge from-layer="444" from-port="0" to-layer="445" to-port="1" />
		<edge from-layer="445" from-port="2" to-layer="460" to-port="0" />
		<edge from-layer="446" from-port="0" to-layer="447" to-port="1" />
		<edge from-layer="447" from-port="2" to-layer="449" to-port="0" />
		<edge from-layer="448" from-port="0" to-layer="449" to-port="1" />
		<edge from-layer="449" from-port="2" to-layer="450" to-port="0" />
		<edge from-layer="450" from-port="1" to-layer="452" to-port="0" />
		<edge from-layer="451" from-port="0" to-layer="452" to-port="1" />
		<edge from-layer="452" from-port="2" to-layer="454" to-port="0" />
		<edge from-layer="453" from-port="0" to-layer="454" to-port="1" />
		<edge from-layer="454" from-port="2" to-layer="455" to-port="0" />
		<edge from-layer="455" from-port="1" to-layer="457" to-port="0" />
		<edge from-layer="456" from-port="0" to-layer="457" to-port="1" />
		<edge from-layer="457" from-port="2" to-layer="459" to-port="0" />
		<edge from-layer="458" from-port="0" to-layer="459" to-port="1" />
		<edge from-layer="459" from-port="2" to-layer="460" to-port="1" />
		<edge from-layer="460" from-port="2" to-layer="462" to-port="0" />
		<edge from-layer="461" from-port="0" to-layer="462" to-port="1" />
		<edge from-layer="462" from-port="2" to-layer="523" to-port="1" />
		<edge from-layer="463" from-port="0" to-layer="464" to-port="1" />
		<edge from-layer="464" from-port="2" to-layer="466" to-port="0" />
		<edge from-layer="465" from-port="0" to-layer="466" to-port="1" />
		<edge from-layer="466" from-port="2" to-layer="467" to-port="0" />
		<edge from-layer="467" from-port="1" to-layer="468" to-port="0" />
		<edge from-layer="468" from-port="2" to-layer="470" to-port="0" />
		<edge from-layer="469" from-port="0" to-layer="470" to-port="1" />
		<edge from-layer="470" from-port="2" to-layer="472" to-port="0" />
		<edge from-layer="471" from-port="0" to-layer="472" to-port="1" />
		<edge from-layer="472" from-port="2" to-layer="473" to-port="0" />
		<edge from-layer="473" from-port="1" to-layer="475" to-port="0" />
		<edge from-layer="474" from-port="0" to-layer="475" to-port="1" />
		<edge from-layer="475" from-port="4" to-layer="486" to-port="1" />
		<edge from-layer="475" from-port="3" to-layer="486" to-port="0" />
		<edge from-layer="475" from-port="4" to-layer="477" to-port="0" />
		<edge from-layer="476" from-port="0" to-layer="477" to-port="1" />
		<edge from-layer="477" from-port="2" to-layer="479" to-port="0" />
		<edge from-layer="478" from-port="0" to-layer="479" to-port="1" />
		<edge from-layer="479" from-port="2" to-layer="480" to-port="0" />
		<edge from-layer="480" from-port="1" to-layer="482" to-port="0" />
		<edge from-layer="481" from-port="0" to-layer="482" to-port="1" />
		<edge from-layer="482" from-port="2" to-layer="484" to-port="0" />
		<edge from-layer="483" from-port="0" to-layer="484" to-port="1" />
		<edge from-layer="484" from-port="2" to-layer="485" to-port="0" />
		<edge from-layer="485" from-port="1" to-layer="486" to-port="2" />
		<edge from-layer="486" from-port="3" to-layer="488" to-port="0" />
		<edge from-layer="487" from-port="0" to-layer="488" to-port="1" />
		<edge from-layer="488" from-port="2" to-layer="490" to-port="0" />
		<edge from-layer="489" from-port="0" to-layer="490" to-port="1" />
		<edge from-layer="490" from-port="2" to-layer="491" to-port="0" />
		<edge from-layer="491" from-port="1" to-layer="507" to-port="0" />
		<edge from-layer="491" from-port="1" to-layer="493" to-port="0" />
		<edge from-layer="492" from-port="0" to-layer="493" to-port="1" />
		<edge from-layer="493" from-port="2" to-layer="495" to-port="0" />
		<edge from-layer="494" from-port="0" to-layer="495" to-port="1" />
		<edge from-layer="495" from-port="2" to-layer="496" to-port="0" />
		<edge from-layer="496" from-port="1" to-layer="498" to-port="0" />
		<edge from-layer="497" from-port="0" to-layer="498" to-port="1" />
		<edge from-layer="498" from-port="2" to-layer="500" to-port="0" />
		<edge from-layer="499" from-port="0" to-layer="500" to-port="1" />
		<edge from-layer="500" from-port="2" to-layer="501" to-port="0" />
		<edge from-layer="501" from-port="1" to-layer="503" to-port="0" />
		<edge from-layer="502" from-port="0" to-layer="503" to-port="1" />
		<edge from-layer="503" from-port="2" to-layer="505" to-port="0" />
		<edge from-layer="504" from-port="0" to-layer="505" to-port="1" />
		<edge from-layer="505" from-port="2" to-layer="520" to-port="0" />
		<edge from-layer="506" from-port="0" to-layer="507" to-port="1" />
		<edge from-layer="507" from-port="2" to-layer="509" to-port="0" />
		<edge from-layer="508" from-port="0" to-layer="509" to-port="1" />
		<edge from-layer="509" from-port="2" to-layer="510" to-port="0" />
		<edge from-layer="510" from-port="1" to-layer="512" to-port="0" />
		<edge from-layer="511" from-port="0" to-layer="512" to-port="1" />
		<edge from-layer="512" from-port="2" to-layer="514" to-port="0" />
		<edge from-layer="513" from-port="0" to-layer="514" to-port="1" />
		<edge from-layer="514" from-port="2" to-layer="515" to-port="0" />
		<edge from-layer="515" from-port="1" to-layer="517" to-port="0" />
		<edge from-layer="516" from-port="0" to-layer="517" to-port="1" />
		<edge from-layer="517" from-port="2" to-layer="519" to-port="0" />
		<edge from-layer="518" from-port="0" to-layer="519" to-port="1" />
		<edge from-layer="519" from-port="2" to-layer="520" to-port="1" />
		<edge from-layer="520" from-port="2" to-layer="522" to-port="0" />
		<edge from-layer="521" from-port="0" to-layer="522" to-port="1" />
		<edge from-layer="522" from-port="2" to-layer="523" to-port="2" />
		<edge from-layer="523" from-port="3" to-layer="526" to-port="0" />
		<edge from-layer="524" from-port="0" to-layer="526" to-port="1" />
		<edge from-layer="525" from-port="0" to-layer="526" to-port="2" />
		<edge from-layer="526" from-port="3" to-layer="528" to-port="0" />
		<edge from-layer="526" from-port="4" to-layer="571" to-port="0" />
		<edge from-layer="527" from-port="0" to-layer="528" to-port="1" />
		<edge from-layer="528" from-port="2" to-layer="530" to-port="0" />
		<edge from-layer="529" from-port="0" to-layer="530" to-port="1" />
		<edge from-layer="530" from-port="2" to-layer="531" to-port="0" />
		<edge from-layer="531" from-port="1" to-layer="533" to-port="0" />
		<edge from-layer="532" from-port="0" to-layer="533" to-port="1" />
		<edge from-layer="533" from-port="2" to-layer="535" to-port="0" />
		<edge from-layer="534" from-port="0" to-layer="535" to-port="1" />
		<edge from-layer="535" from-port="2" to-layer="562" to-port="0" />
		<edge from-layer="535" from-port="2" to-layer="539" to-port="0" />
		<edge from-layer="535" from-port="2" to-layer="550" to-port="0" />
		<edge from-layer="536" from-port="0" to-layer="550" to-port="1" />
		<edge from-layer="537" from-port="0" to-layer="548" to-port="0" />
		<edge from-layer="538" from-port="0" to-layer="548" to-port="1" />
		<edge from-layer="539" from-port="1" to-layer="542" to-port="0" />
		<edge from-layer="540" from-port="0" to-layer="542" to-port="1" />
		<edge from-layer="541" from-port="0" to-layer="542" to-port="2" />
		<edge from-layer="542" from-port="3" to-layer="544" to-port="0" />
		<edge from-layer="543" from-port="0" to-layer="544" to-port="1" />
		<edge from-layer="544" from-port="2" to-layer="546" to-port="0" />
		<edge from-layer="545" from-port="0" to-layer="546" to-port="1" />
		<edge from-layer="546" from-port="2" to-layer="548" to-port="2" />
		<edge from-layer="546" from-port="2" to-layer="559" to-port="0" />
		<edge from-layer="546" from-port="2" to-layer="556" to-port="2" />
		<edge from-layer="547" from-port="0" to-layer="548" to-port="3" />
		<edge from-layer="548" from-port="4" to-layer="550" to-port="2" />
		<edge from-layer="549" from-port="0" to-layer="550" to-port="3" />
		<edge from-layer="550" from-port="4" to-layer="551" to-port="1" />
		<edge from-layer="551" from-port="2" to-layer="567" to-port="1" />
		<edge from-layer="551" from-port="2" to-layer="564" to-port="0" />
		<edge from-layer="552" from-port="0" to-layer="563" to-port="0" />
		<edge from-layer="553" from-port="0" to-layer="556" to-port="0" />
		<edge from-layer="554" from-port="0" to-layer="556" to-port="1" />
		<edge from-layer="554" from-port="0" to-layer="560" to-port="1" />
		<edge from-layer="555" from-port="0" to-layer="556" to-port="3" />
		<edge from-layer="555" from-port="0" to-layer="560" to-port="3" />
		<edge from-layer="556" from-port="4" to-layer="562" to-port="1" />
		<edge from-layer="557" from-port="0" to-layer="560" to-port="0" />
		<edge from-layer="558" from-port="0" to-layer="559" to-port="1" />
		<edge from-layer="559" from-port="2" to-layer="560" to-port="2" />
		<edge from-layer="560" from-port="4" to-layer="562" to-port="2" />
		<edge from-layer="561" from-port="0" to-layer="562" to-port="3" />
		<edge from-layer="562" from-port="4" to-layer="563" to-port="1" />
		<edge from-layer="563" from-port="2" to-layer="567" to-port="0" />
		<edge from-layer="563" from-port="2" to-layer="564" to-port="1" />
		<edge from-layer="564" from-port="2" to-layer="566" to-port="0" />
		<edge from-layer="565" from-port="0" to-layer="566" to-port="1" />
		<edge from-layer="566" from-port="2" to-layer="568" to-port="0" />
		<edge from-layer="567" from-port="2" to-layer="568" to-port="1" />
		<edge from-layer="568" from-port="2" to-layer="570" to-port="0" />
		<edge from-layer="569" from-port="0" to-layer="570" to-port="1" />
		<edge from-layer="570" from-port="2" to-layer="572" to-port="0" />
		<edge from-layer="571" from-port="1" to-layer="572" to-port="1" />
		<edge from-layer="572" from-port="2" to-layer="573" to-port="0" />
	</edges>
	<rt_info>
		<MO_version value="2023.2.0-13089-cfd42bd2cb0-HEAD" />
		<Runtime_version value="2023.2.0-13089-cfd42bd2cb0-HEAD" />
		<conversion_parameters>
			<framework value="onnx" />
			<input_model value="DIR/best.onnx" />
			<is_python_api_used value="True" />
			<model_name value="YOLOv8n-mobilenet" />
		</conversion_parameters>
		<framework>
			<author value="Ultralytics" />
			<batch value="1" />
			<date value="2024-02-04T16:20:53.864511" />
			<description value="Ultralytics YOLOv8n-mobilenet model trained on /home/hulk/ultralytics-custom/robot-detection.yaml" />
			<imgsz value="[96, 128]" />
			<license value="AGPL-3.0 https://ultralytics.com/license" />
			<names value="{0: 'robot'}" />
			<stride value="32" />
			<task value="detect" />
			<version value="8.0.231" />
		</framework>
		<legacy_frontend value="False" />
		<model_info>
			<iou_threshold value="0.7" />
			<labels value="robot" />
			<model_type value="YOLOv8" />
			<pad_value value="114" />
			<resize_type value="fit_to_window_letterbox" />
			<reverse_input_channels value="YES" />
			<scale_values value="255" />
		</model_info>
	</rt_info>
</net>
